Assignment2/notebooks/models/transformer-decoder.pth (torch, 689784 bytes, 98 tensors)

weight f4 [67, 64]
00000000: 5279 31bf 2c6b 263f 98c1 023f 31d1 02c0
00000010: bba0 75bf 3733 96be 19aa 2e3f c1b3 a5bf
00000020: 882c 37bf 7ec9 d33d 8d78 05bf 42e2 923f
00000030: ee65 3d3f 1251 6ebd d0e7 02bd 2358 903e
00000040: 6366 c3be 824d fcbe 0424 25be 579d f33f
00000050: 87b3 3d3f 4a6a 97be b675 6cbf 6014 bf3f
00000060: 5d32 cc3f 88f1 353f 017a 973f f50a 75be
00000070: 04aa 1f3d c5e2 8c3e 10bb d6be c814 76bf
00000080: 7399 c0bd 5c90 593e 7f2d e03e 8108 f73d
00000090: c4ff 853f 3053 c13e 9511 643f dd53 edbe
000000a0: 89ca 74be 0d69 10bf d62f 26bf 09ef 20be
000000b0: 7f6c 91bd 89bf 9d3f b037 323f df92 eabe
000000c0: 45c9 4cbf 0837 bfbf 1ce2 933f 85aa 69be
000000d0: 0aba 3e3f 6276 5ebf 1343 813e 58dc e33d
000000e0: 846a 133f 2521 f33e f94a 463f 004c 03bf
000000f0: 02ed 443d f97a cb3f ab17 93bb 80a9 2ebe
00000100: 6012 863f 1ebe 77be 4e9b ba3f 7727 edbe
00000110: 64a0 8cbc 25fe 023d 8596 533e 53d8 eabd
00000120: f749 833f a5bf bbbf 5e6f be3e e6e7 3bbf
00000130: f394 14bf 9de8 8dbf 3cb5 bbbc 604d afbd
00000140: 1be3 04bf db11 7b3f 0df3 a23d 02e8 19be
00000150: 3151 a83e 99f4 21be d32b 6e3f 18ba 423f
00000160: 2af6 ef3e 1476 e3bd 2395 e3be 229a a8bc
00000170: 9453 1d3f fd67 92bf 4be1 9cbe e8a5 1bbf
00000180: f84d a5be 1721 9abf 7dbf 433f 75ac 133f
00000190: 60e3 903f c942 e2bb d0c2 ba3e d0c8 13bf
000001a0: 8506 83bd 8c40 5d3f cc88 8b3f 5e87 e13e
000001b0: 6a4e c03f c4d9 303f b357 fe3d 8d42 8ebe
000001c0: bee0 35bd dfed da3e 7400 c83f d43b 97bf
000001d0: 3cc2 e8bf ae62 a63e 9ea2 a5be 5343 78be
000001e0: 8326 683f a6eb e8be 2f23 883f 68d7 ea3e
000001f0: 440d 513e 152d 62bf d07b b9be af98 493f
00000200: 4ba8 8b3e 82ec b6bf ea69 363f 1e4a 393f
00000210: 4273 69bf 8c13 8c3f e857 7fbe 6fde 953f
00000220: 53b4 3a3f 14ee 34bf ecc5 8d3f 713a 00bd
00000230: a90f 0e3e 2a0e fdbd 83ca 4d3f 40d7 163f
00000240: 0a87 9d3f 49fd 5fbf b057 93bf f35b 86be
00000250: 2e44 0b3f bd72 3b3f 8c39 0bc0 b185 cd3f
00000260: 0493 ad3e f33e 18c0 5e5a d2be 43fd 8d3f
00000270: e010 08bf d712 bd3e 2ba0 e93e 6667 6ebf
00000280: 47e4 24bf 81f2 cb3e 1d44 b3be 99eb 23bf
00000290: 2b8e 21bf 315a 213e 42be 3d3e 61f6 94bf
000002a0: c9ff d83e ed60 663e 1651 a33f a864 913d
000002b0: 5a33 583f fa68 2ebf 432f 093f a86f 6a3f
000002c0: f7b3 893f 89bc 8dbf ee68 143e 2980 7c3f
000002d0: 2b62 97bf 0d79 38bf 05b6 313f 8129 7cbe
000002e0: 43e8 e8be a4ea 92bf eb93 243f 1f8e 94bf
000002f0: c53e 2fbf 9a41 bf3f ae05 b43d b1b6 0f3f
00000300: 2578 33bf 1beb 263f 38f1 823e e8b7 693f
00000310: ddea 82bf f815 2f40 e163 0b3e 04bb 973f
00000320: 93ac 3a3c 6187 b53f 3514 af3f 596f bf3e
00000330: cb9d f03e 3756 3dbf 0d20 f93e 4bc8 fcbe
00000340: bc7f 0940 0b9b 78bf fa4e f53f 48df 513f
00000350: 2500 94be af2f 7bbd 0580 45bf b145 08bf
00000360: 29d5 b7bd 116c 90bf b955 e8bf 6396 e5bf
00000370: 2e6a 27bf ee3b 0640 e220 5bbf 7dac 2fbf
00000380: da68 3340 c87e 153f 04e8 8dbf a467 8d3a
00000390: c516 943f e02d 873f 6e39 cf3f 4fa6 743d
000003a0: fa95 86bd 1d11 08bf 181e eb3e f09f 01bf
000003b0: 40a4 d1bc 00db 25bf 2541 1f3d 65a3 463f
000003c0: 956f aabf a697 913e f0f3 5abf 46c4 853f
000003d0: 18b5 bb3e 8588 6bbf ff38 1dbf f987 0ebf
000003e0: 6e0b 553f 08e1 cebf 93fd d23d 42f7 ac3e
000003f0: 8d24 5a3e 3273 eabf 0be7 0dbf b33a abbf
-0.69325745 0.6500728 0.5107665 -2.044018 -0.9594838 -0.2933595 0.682283 -1.2945482
-0.71552324 0.10341166 -0.5213707 1.1475298 0.7398366 -0.058182783 -0.031959355 0.28192243
-0.38164052 -0.49277884 -0.1612702 1.9032391 0.7410206 -0.2957328 -0.9236711 1.4928093
1.595287 0.7107167 1.1834108 -0.23929961 0.0389805 0.2751676 -0.41939592 -0.9612546
-0.09404268 0.21246475 0.4378471 0.12062169 1.0468678 0.3775878 0.8908933 -0.46353045
-0.23905386 -0.56410295 -0.6491674 -0.15716185 -0.07100772 1.2324077 0.6961622 -0.4581518
-0.7999461 -1.4938669 1.1553378 -0.22818954 0.74502623 -0.8689939 0.25246486 0.111260116
0.57584405 0.47486225 0.7745815 -0.5128784 0.04807759 1.5896903 -0.0044889054 -0.17056847
1.0474358 -0.24193618 1.4578645 -0.46319172 -0.017166324 0.031980652 0.20662887 -0.11467042
1.0256947 -1.466786 0.3719434 -0.73400724 -0.5803978 -1.1086613 -0.022913568 -0.0855968
-0.51909035 0.9807412 0.079565145 -0.1502991 0.32874444 -0.15815963 0.9303562 0.76065207
0.46867496 -0.11106506 -0.4444972 -0.020581309 0.61455655 -1.1437985 -0.30640635 -0.6080003
-0.32286048 -1.2041348 0.7646406 0.57685024 1.1319389 -0.006904934 0.36476755 -0.5772829
-0.06397728 0.86426616 1.0901122 0.4404859 1.502393 0.69082284 0.12419071 -0.2778515
-0.044403784 0.42759606 1.5625138 -1.1815133 -1.8184276 0.32497162 -0.3235063 -0.24244432
0.90683764 -0.45492285 1.0635737 0.45867467 0.20415217 -0.8835004 -0.36227274 0.787486
0.27276835 -1.4290926 0.7125536 0.7237872 -0.91191494 1.0943465 -0.24935877 1.1708506
0.729314 -0.7067578 1.1076026 -0.031305734 0.13873161 -0.12356217 0.80387133 0.58922195
1.2306836 -0.8749586 -1.1511135 -0.26242027 0.5440091 0.7322195 -2.1753874 1.6056424
0.33901227 -2.378842 -0.4108457 1.1092914 -0.5315075 0.36928436 0.4563001 -0.93126523
-0.64410824 0.39833453 -0.35012904 -0.6403137 -0.63107556 0.15757062 0.18529609 -1.1637689
0.4238265 0.22497912 1.275912 0.07099277 0.84453356 -0.6812893 0.5358774 0.91576624
1.0758046 -1.1073161 0.14493152 0.98633057 -1.1826833 -0.7205971 0.69418365 -0.24625207
-0.45489702 -1.1477857 0.64288205 -1.1605872 -0.68455154 1.4941895 0.08790146 0.5613814
-0.701052 0.6520249 0.2557466 0.91296244 -1.0227925 2.7357159 0.1361232 1.1853948
0.011393684 1.4181939 1.3678042 0.3738964 0.46995386 -0.7395968 0.48657265 -0.4937156
2.1484213 -0.97111577 1.9164727 0.81981325 -0.2890636 -0.06132477 -0.7714847 -0.5323134
-0.08976204 -1.1282979 -1.815116 -1.7936519 -0.6539639 2.0974078 -0.8559705 -0.6862257
2.8032746 0.5839658 -1.108643 0.0010788334 1.1569449 1.0560875 1.6189401 0.059728917
-0.065715745 -0.5315111 0.45921397 -0.5063467 -0.025591016 -0.6478729 0.038880486 0.7759307
-1.3315302 0.2843601 -0.8552847 1.0450523 0.366616 -0.9200519 -0.61415094 -0.5567623
0.83220565 -1.6162424 0.10302272 0.33782393 0.21303006 -1.8316405 -0.5543067 -1.3377289

weight f4 [28, 64]
00000000: 7ffc 42bf 799e afbd 8e13 f83f a925 f2be
00000010: 6c76 8e3d c481 063d 947f c7be 5983 aebf
00000020: 399b f4be dd97 e73e e567 b2be 6d30 223f
00000030: cfb2 a3bf c77b 43bf 8985 4dbf 8f03 e03e
00000040: c22c 20bf 5dad 8c3c 0d04 fd3e c2b0 0b3e
00000050: 0f01 01bf 699f cabf de9f a2be 86c6 bb3f
00000060: 472e b2be 3e9c 13c0 f415 cdbe 75d5 043f
00000070: ec23 b33e 232a 1abf 7def 44bf 611f c33e
00000080: 81ad 7abe 0022 18bf ffd4 173d 3d67 1abf
00000090: 7a7c a23e a3db cb3f 96a5 e53d daa2 39bf
000000a0: cd93 8d3f 6338 92be 4eb1 79bd bb1b 74bf
000000b0: 4521 05bf 8a76 dc3d f7d6 aa3e a52f dcbe
000000c0: 472c 333e 5454 93bd bd0d 843e b63f 613e
000000d0: 7252 43bf 2156 693e d03e 943e 563b 5fbe
000000e0: 8ebc b8bf c2bb 12c0 33f8 15bd dd5b 843e
000000f0: 7c36 bbbe d2a2 863e c00d 463f 0ed3 b7bf
00000100: a39a 263e 666f 0a3f 6316 57bf 91fc 87be
00000110: a4fa 8cbe 0c13 88be d443 5b3f 5afc 4e3d
00000120: 7114 13bc 6979 683f 9423 fb3e 4e08 c63e
00000130: 5e25 6ebe d79e 2c3d 9146 15c0 fa22 ee3e
00000140: 6351 8ebe 2f3c 403f 49e1 303f 44ea a33e
00000150: 10a7 193e 9c27 38be 64cb 0240 e07d b6be
00000160: 8ecb 45bf 64be ef3e c9b6 6f3d bbec 12c0
00000170: 8f7f d13e 91f6 92be 2b8a f6b8 44da 1b3f
00000180: ecc5 613e ffec 96be 3d85 883f 6bea 9fbf
00000190: ad77 10bf 1014 513f a5a8 75bf 00f1 65bf
000001a0: c254 5b3f fba6 26bf 986c 3cbf b5f6 9bbf
000001b0: 95bf 1ebf 3674 17be e9ae d33d 69c3 c23e
000001c0: 6284 443f 138e 70be 7c9d 37bc fc5f 95bf
000001d0: 4146 3a3e 8570 013f bb05 a43e 8bbe 91bc
000001e0: 7834 c1bb 4520 1fbf dd7a 59bf 16df f2bd
000001f0: 0288 2c3f dc41 e6be d1d3 ebbf 7697 333f
00000200: f575 68bd e872 90bf e365 1a3f ed76 cabe
00000210: 861c 623e 6f44 f43e a923 393e cf7f 6fbc
00000220: 19d5 023f b4ed 2d3f 4560 6f3e 6883 093f
00000230: 9c4c 76bf 461c e93e 6beb 17be 3230 583e
00000240: 383f 21bf c76c 01bf d2b3 563e ee56 013f
00000250: 0136 3abe ef38 1b3e ef64 cabe 1ac4 4b3e
00000260: 8310 6fbe 6f8d 14bd befa c83f 5866 c43f
00000270: 2286 82bf e18f 883d 8366 6e3f 7ed0 5a3c
00000280: 975b ca3e d791 863e a999 c83e a602 12be
00000290: e57d 683e 0c8f c8be d6ad 523e 6478 01be
000002a0: ac7b 51bf cda4 cf3e 54ce d4bf e40f af3e
000002b0: 67db 723d 76e1 d1be f6b8 80be 4fc9 623f
000002c0: 5ca2 073f f77c abbd 2fcf a4bf 5275 9e3e
000002d0: 50b3 a63e 503b 2d3d 1153 1ebf 01a1 143f
000002e0: bd6f 0140 c5d0 713d d2b1 07be 2d2e a23f
000002f0: 54b4 b4be 4dac 44be 8e75 09bd 4396 0a3f
00000300: 66c4 20bd 25c2 16bf 142b 27bf 9054 8ebd
00000310: b3d3 8a3f 7b70 ae3f 84cd 973e d0a9 9ebe
00000320: f0ac 803f 8f35 d2be 2122 733f 6af3 443e
00000330: 5922 50bd 0b5f cabe 5f74 943f 9db3 e83e
00000340: 7686 cdbe 9851 9e3e 020a a63f cb34 cbbe
00000350: 00e2 17bc a57c 053f d09f 5ebf 756c 9a3e
00000360: b0cf 903e 51f4 6dbf 0362 5dbe 3f2b f5be
00000370: fc14 3cbd f5b1 3f3d 1e2a 923f 49ee cdbe
00000380: 4b99 acbe 3c15 533f 6369 74be a87e 69bf
00000390: f5d1 42bf fd29 18bd a017 82bf f5ab c9be
000003a0: 0601 f43c 3929 483f 5672 543f 99e1 163e
000003b0: 34c1 b1be 67d0 0bbe b3bf 1ebf be3f 63bf
000003c0: 639d 01bd b149 b8be 784e 6d3e 1ac5 1f3f
000003d0: 0833 10bf 1b76 13bf 2df7 013e e65f aa3f
000003e0: 43f4 16bd 73b7 aebe c335 8bbf 23ae c7be
000003f0: 6b09 9abd f111 9bbe e98e 003f 2bb5 f3be
-0.7616653 -0.08575148 1.9380968 -0.47294357 0.06956181 0.032838598 -0.38964522 -1.3633834
-0.47774675 0.4523305 -0.3484489 0.6335514 -1.2788943 -0.76360744 -0.80281883 0.43752715
-0.62568295 0.01717251 0.49417153 0.13641647 -0.5039224 -1.5829898 -0.31762594 1.466996
-0.34800932 -2.3064113 -0.4005581 0.5188821 0.34988344 -0.60220546 -0.7692793 0.38109878
-0.24480249 -0.5942688 0.037068363 -0.6031378 0.31735593 1.5926403 0.11213224 -0.72514117
1.106073 -0.28558645 -0.060960107 -0.95354813 -0.5200389 0.10764797 0.3336713 -0.430051
0.17497359 -0.07193819 0.2579173 0.2199696 -0.76297677 0.22786762 0.28954172 -0.21799979
-1.4432542 -2.2927098 -0.036613654 0.25851336 -0.36565006 0.26296097 0.7736473 -1.4361284
0.16269927 0.5407623 -0.84018534 -0.2655988 -0.27534974 -0.26577032 0.8565037 0.05053363
-0.008977042 0.9081026 0.4905058 0.3867821 -0.23256442 0.04214367 -2.332432 0.4651106
-0.27796468 0.7509183 0.6909376 0.32014668 0.15005136 -0.1798386 2.043664 -0.3564291
-0.77263725 0.46824944 0.058523927 -2.295699 0.40917632 -0.2870374 -0.0001175593 0.6087992
0.22048157 -0.2947769 1.0665661 -1.2493414 -0.5643261 0.8167124 -0.95960456 -0.8982086
0.85676205 -0.6509854 -0.736032 -1.2184664 -0.6201108 -0.14790425 0.10336096 0.3803971
0.767645 -0.23491697 -0.011206981 -1.1669917 0.18190862 0.50562316 0.32035622 -0.017791053
-0.0058961473 -0.62158614 -0.849531 -0.118589565 0.6739503 -0.44972122 -1.8424016 0.70152986
-0.056753118 -1.1285067 0.60311717 -0.39543858 0.22081193 0.4770846 0.1808001 -0.014617874
0.5110641 0.6794083 0.23376568 0.53716135 -0.96210647 0.45529383 -0.14835899 0.21112135
-0.6298709 -0.50556606 0.20967034 0.5052327 -0.18184663 0.15158437 -0.3953013 0.19899026
-0.23346142 -0.036267694 1.570152 1.5343733 -1.0197184 0.06668068 0.9312517 0.0133553725
0.39523003 0.26283142 0.39179733 -0.14258823 0.22704275 -0.39171636 0.20574126 -0.12643582
-0.81829333 0.4055542 -1.6625466 0.3419181 0.05929127 -0.40992326 -0.25141114 0.8858842
0.52982116 -0.083734445 -1.2875727 0.30948883 0.3255868 0.042292893 -0.618455 0.5805817
2.022445 0.05903699 -0.13251427 1.2670342 -0.3529383 -0.19206353 -0.033559375 0.5413553
-0.0392498 -0.5888999 -0.65300107 -0.06949723 1.0845855 1.3628076 0.29648983 -0.30988932
1.0052776 -0.41056487 0.9497395 0.1923348 -0.050814006 -0.39525637 1.1598014 0.45449534
-0.40141648 0.30921626 1.2971804 -0.39688715 -0.009270191 0.5214332 -0.86962605 0.3016087
0.28283453 -0.9295092 -0.2161942 -0.47884557 -0.04591845 0.046800572 1.1419103 -0.4022086
-0.33710703 0.82454276 -0.23868327 -0.9120889 -0.7610162 -0.03714942 -1.016346 -0.39389005
0.029785644 0.781879 0.8298696 0.14734496 -0.34717715 -0.13653718 -0.6201126 -0.8876914
-0.031644236 -0.35993722 0.23174465 0.6241013 -0.5632787 -0.5760209 0.12691946 1.3310516
-0.03685404 -0.34124336 -1.0875782 -0.39000043 -0.075213276 -0.30287126 0.50218064 -0.47599158

tril f4 [30, 30]
00000000: 0000 803f 0000 0000 0000 0000 0000 0000
00000010: 0000 0000 0000 0000 0000 0000 0000 0000
00000020: 0000 0000 0000 0000 0000 0000 0000 0000
00000030: 0000 0000 0000 0000 0000 0000 0000 0000
00000040: 0000 0000 0000 0000 0000 0000 0000 0000
00000050: 0000 0000 0000 0000 0000 0000 0000 0000
00000060: 0000 0000 0000 0000 0000 0000 0000 0000
00000070: 0000 0000 0000 0000 0000 803f 0000 803f
00000080: 0000 0000 0000 0000 0000 0000 0000 0000
00000090: 0000 0000 0000 0000 0000 0000 0000 0000
000000a0: 0000 0000 0000 0000 0000 0000 0000 0000
000000b0: 0000 0000 0000 0000 0000 0000 0000 0000
000000c0: 0000 0000 0000 0000 0000 0000 0000 0000
000000d0: 0000 0000 0000 0000 0000 0000 0000 0000
000000e0: 0000 0000 0000 0000 0000 0000 0000 0000
000000f0: 0000 803f 0000 803f 0000 803f 0000 0000
00000100: 0000 0000 0000 0000 0000 0000 0000 0000
00000110: 0000 0000 0000 0000 0000 0000 0000 0000
00000120: 0000 0000 0000 0000 0000 0000 0000 0000
00000130: 0000 0000 0000 0000 0000 0000 0000 0000
00000140: 0000 0000 0000 0000 0000 0000 0000 0000
00000150: 0000 0000 0000 0000 0000 0000 0000 0000
00000160: 0000 0000 0000 0000 0000 803f 0000 803f
00000170: 0000 803f 0000 803f 0000 0000 0000 0000
00000180: 0000 0000 0000 0000 0000 0000 0000 0000
00000190: 0000 0000 0000 0000 0000 0000 0000 0000
000001a0: 0000 0000 0000 0000 0000 0000 0000 0000
000001b0: 0000 0000 0000 0000 0000 0000 0000 0000
000001c0: 0000 0000 0000 0000 0000 0000 0000 0000
000001d0: 0000 0000 0000 0000 0000 0000 0000 0000
000001e0: 0000 803f 0000 803f 0000 803f 0000 803f
000001f0: 0000 803f 0000 0000 0000 0000 0000 0000
00000200: 0000 0000 0000 0000 0000 0000 0000 0000
00000210: 0000 0000 0000 0000 0000 0000 0000 0000
00000220: 0000 0000 0000 0000 0000 0000 0000 0000
00000230: 0000 0000 0000 0000 0000 0000 0000 0000
00000240: 0000 0000 0000 0000 0000 0000 0000 0000
00000250: 0000 0000 0000 0000 0000 803f 0000 803f
00000260: 0000 803f 0000 803f 0000 803f 0000 803f
00000270: 0000 0000 0000 0000 0000 0000 0000 0000
00000280: 0000 0000 0000 0000 0000 0000 0000 0000
00000290: 0000 0000 0000 0000 0000 0000 0000 0000
000002a0: 0000 0000 0000 0000 0000 0000 0000 0000
000002b0: 0000 0000 0000 0000 0000 0000 0000 0000
000002c0: 0000 0000 0000 0000 0000 0000 0000 0000
000002d0: 0000 803f 0000 803f 0000 803f 0000 803f
000002e0: 0000 803f 0000 803f 0000 803f 0000 0000
000002f0: 0000 0000 0000 0000 0000 0000 0000 0000
00000300: 0000 0000 0000 0000 0000 0000 0000 0000
00000310: 0000 0000 0000 0000 0000 0000 0000 0000
00000320: 0000 0000 0000 0000 0000 0000 0000 0000
00000330: 0000 0000 0000 0000 0000 0000 0000 0000
00000340: 0000 0000 0000 0000 0000 803f 0000 803f
00000350: 0000 803f 0000 803f 0000 803f 0000 803f
00000360: 0000 803f 0000 803f 0000 0000 0000 0000
00000370: 0000 0000 0000 0000 0000 0000 0000 0000
00000380: 0000 0000 0000 0000 0000 0000 0000 0000
00000390: 0000 0000 0000 0000 0000 0000 0000 0000
000003a0: 0000 0000 0000 0000 0000 0000 0000 0000
000003b0: 0000 0000 0000 0000 0000 0000 0000 0000
000003c0: 0000 803f 0000 803f 0000 803f 0000 803f
000003d0: 0000 803f 0000 803f 0000 803f 0000 803f
000003e0: 0000 803f 0000 0000 0000 0000 0000 0000
000003f0: 0000 0000 0000 0000 0000 0000 0000 0000
1.0 0.0 0.0 0.0 0.0 0.0 0.0 0.0
0.0 0.0 0.0 0.0 0.0 0.0 0.0 0.0
0.0 0.0 0.0 0.0 0.0 0.0 0.0 0.0
0.0 0.0 0.0 0.0 0.0 0.0 1.0 1.0
0.0 0.0 0.0 0.0 0.0 0.0 0.0 0.0
0.0 0.0 0.0 0.0 0.0 0.0 0.0 0.0
0.0 0.0 0.0 0.0 0.0 0.0 0.0 0.0
0.0 0.0 0.0 0.0 1.0 1.0 1.0 0.0
0.0 0.0 0.0 0.0 0.0 0.0 0.0 0.0
0.0 0.0 0.0 0.0 0.0 0.0 0.0 0.0
0.0 0.0 0.0 0.0 0.0 0.0 0.0 0.0
0.0 0.0 1.0 1.0 1.0 1.0 0.0 0.0
0.0 0.0 0.0 0.0 0.0 0.0 0.0 0.0
0.0 0.0 0.0 0.0 0.0 0.0 0.0 0.0
0.0 0.0 0.0 0.0 0.0 0.0 0.0 0.0
1.0 1.0 1.0 1.0 1.0 0.0 0.0 0.0
0.0 0.0 0.0 0.0 0.0 0.0 0.0 0.0
0.0 0.0 0.0 0.0 0.0 0.0 0.0 0.0
0.0 0.0 0.0 0.0 0.0 0.0 1.0 1.0
1.0 1.0 1.0 1.0 0.0 0.0 0.0 0.0
0.0 0.0 0.0 0.0 0.0 0.0 0.0 0.0
0.0 0.0 0.0 0.0 0.0 0.0 0.0 0.0
0.0 0.0 0.0 0.0 1.0 1.0 1.0 1.0
1.0 1.0 1.0 0.0 0.0 0.0 0.0 0.0
0.0 0.0 0.0 0.0 0.0 0.0 0.0 0.0
0.0 0.0 0.0 0.0 0.0 0.0 0.0 0.0
0.0 0.0 1.0 1.0 1.0 1.0 1.0 1.0
1.0 1.0 0.0 0.0 0.0 0.0 0.0 0.0
0.0 0.0 0.0 0.0 0.0 0.0 0.0 0.0
0.0 0.0 0.0 0.0 0.0 0.0 0.0 0.0
1.0 1.0 1.0 1.0 1.0 1.0 1.0 1.0
1.0 0.0 0.0 0.0 0.0 0.0 0.0 0.0

weight f4 [16, 64]
00000000: e65a 123f b457 56be 06a3 c83c 4537 d83d
00000010: 6b5b e8be 6c95 643e 3af6 8ebe 20f2 bfbe
00000020: bae9 97be 2452 f93c 4a1c 4cbe 8f24 d9be
00000030: 354c f23d 4c68 b53e a257 223f a7c2 61be
00000040: 6de3 83be 748f 163e c6f8 afbd 6187 283d
00000050: a34d a2bd eca1 e1be f396 bebd 9d8b 073d
00000060: 73c2 393e a655 7e3e 20ee 1dbe 6311 02be
00000070: 6e21 2bbd b877 2b3e 2e6d 8cbd 48f2 f23d
00000080: 01c7 8abe bdd3 dd3e 9645 093e ca30 103f
00000090: 0ec1 413e 6a55 5abe 7c10 de3e f00a c5bc
000000a0: b79d 623e bea1 56be e5d0 e63c 3718 cc3d
000000b0: 09e7 383c 82e2 713e 629d 99be f665 72be
000000c0: ef17 9dbd 85e7 b7bd 93f3 283c 76b3 8e3d
000000d0: 2449 91be 1849 eb3e 219b 4b3e 5fab 92be
000000e0: f62a 18be dd88 6fbe f839 e23e cfb9 cc3d
000000f0: 4958 2bbe 51cc a13e 080d 0ebd a0cb babc
00000100: 4b29 04bf b63b f3bd 8d36 063e 53f7 7d3e
00000110: 0c64 b33e 367a 0ebd 87b2 02bf 4c96 03be
00000120: 7d2c 313d ad0e d83e 27fd d9be 88bb c4be
00000130: cfc3 ef3e beba d83d 946d dcbe e95a a3bc
00000140: b0f4 863e b781 323e f17e 63bd 258c da3d
00000150: 9a0d a33a 6641 dd3e ace8 af3e 3447 8fbd
00000160: fa55 e03e 80c3 11bd 6232 a13e 2cc4 363d
00000170: 57dd 9c3e fa29 bc3e 37f0 89be 00f1 dbbd
00000180: ac18 d43d 1edd cbbe cd33 c1be ef96 06bf
00000190: 045e 853d 4d8e 583e 454e 5d3e cb3b 77be
000001a0: 8ec7 66be 18c8 43be b0bf 83be 319d 833e
000001b0: ae1e c4bd 7dbc 263e c608 c73d 6150 5abe
000001c0: 5d39 2b3e 1b03 3bbf 7ff3 9bbe d2fc 2fbe
000001d0: 9747 5b3d 570a d5be ddb5 c93e 51bf 173d
000001e0: 2515 c73e a3bf 8e3e 754e 5cbe 01b8 803d
000001f0: 6174 af3e dda2 a1bd 2562 743e 8733 993c
00000200: 0640 043e 44fc 2bbe d47c 09be 3eb7 81be
00000210: 006f 8fbe 27ad 873e f2ed cfbe af17 02be
00000220: e3b3 9f3d 36c5 b93c 56b4 1cbf 377a 78be
00000230: d66d 823e e5d4 8abe b62e 72bd 83ac 04bf
00000240: 9d0b 04bd f7ff 7b3e d2f6 bdbe 747a 373e
00000250: f106 47bd 5cf4 8cbe f23b 1d3e f44f 853e
00000260: a0df 26be 8532 b1bd d445 6a3e 9280 0dbd
00000270: 8135 40bd 45cc 2c3e c667 983d 3768 233e
00000280: b2da 24be f27f 623b 5249 95bd f58f 88be
00000290: 0137 913a e43d 7d3e 6b94 eabd c623 b9be
000002a0: b4a2 693e 55d4 4f3f 13dc 27be 3877 513e
000002b0: 43d6 0fbd ea0f 773e fd32 d7bd dbb8 5abd
000002c0: d407 1c3f f262 d43e b024 06be 532b adbe
000002d0: d877 913d 6661 b1be b906 a9bd b632 0f3f
000002e0: 138d f0be 0ba4 8d3e d635 ba3d 25d6 e03d
000002f0: af46 8f3c c278 1ebe 89a5 e9bd e61a 56be
00000300: 279f ffbd f3de 86be d2fe 5bbe 1934 bcbe
00000310: 9fe0 483e 9a1f 8c3e 457c 313f 1859 743e
00000320: 632d c5bd 082b 8ebd 9641 9ebd 1e59 13be
00000330: 0b8f 223f 72a6 fabe 8a92 a33e 67ab 04be
00000340: 7053 b93e eb66 5c3e f569 0bbf d719 45bd
00000350: 0b64 843e 9040 7d3e c4df 76b9 b356 14be
00000360: 090a 2f3d 5d77 3fbd 4f41 01be 5711 143d
00000370: 3c7b e3bd 09cb 98bd 2744 1ebe ce30 05bf
00000380: e7ba a8bd 79e1 bf3d 8a74 14bf 5a32 963e
00000390: 972b 673e 8e0a 493e 8e59 45bd 4fcd dcbd
000003a0: a05e 6bbe 1b05 d73c bf08 283e 8452 74bd
000003b0: 994d 973e ca29 453e e44e 2f3f 422d 203e
000003c0: 4f92 9d3d f71e 14bf 31e9 ddbe a02d d5bd
000003d0: 0fca 863c 2fda 803e 6ed1 9c3d 496d 843d
000003e0: 8533 a23e 8568 76bd 884e c83d fd35 fa3d
000003f0: a69d 383d 4399 30bd b21e d4bd 42be 33be
0.5716995 -0.20931894 0.024491798 0.10557417 -0.45382246 0.22322625 -0.2792223 -0.37489414
-0.29670507 0.030434676 -0.19932666 -0.42410704 0.118309416 0.35431135 0.6341497 -0.2204691
-0.2575945 0.1470316 -0.08592372 0.041144732 -0.07924964 -0.4406885 -0.09306135 0.03309213
0.18140583 0.2483736 -0.15422869 -0.12701945 -0.041779928 0.16744888 -0.06856762 0.11862618
-0.27104953 0.43325606 0.13405451 0.56324446 0.18921301 -0.21321645 0.43371952 -0.024053067
0.22130476 -0.20960137 0.02817578 0.09965556 0.011285552 0.23621562 -0.30002886 -0.23671708
-0.076705806 -0.08979706 0.010311979 0.06967823 -0.28376114 0.45954204 0.19883396 -0.2864637
-0.14860138 -0.23392053 0.44184852 0.09996378 -0.16732897 0.31601194 -0.034680396 -0.022802174
-0.5162551 -0.11876623 0.13106747 0.24801378 0.35037267 -0.03478452 -0.5105366 -0.12850302
0.043255318 0.42198697 -0.42575952 -0.38424325 0.46829078 0.10582493 -0.4305235 -0.01994081
0.26358557 0.17432295 -0.055540983 0.10671262 0.0012439967 0.43213958 0.34357202 -0.06996003
0.43815595 -0.035586834 0.31483752 0.044620678 0.3063762 0.36750776 -0.26941082 -0.107393265
0.10356268 -0.39817137 -0.37734833 -0.52574056 0.06512073 0.21148033 0.21611889 -0.24143903
-0.22537062 -0.19119298 -0.25732183 0.25705865 -0.09576164 0.1628284 0.0971847 -0.21319725
0.16721101 -0.73051614 -0.3045921 -0.17186287 0.05353507 -0.4160945 0.39396563 0.037047688
0.3888332 0.27880582 -0.21514304 0.06285096 0.34268478 -0.07892392 0.23865564 0.018701328
0.12915048 -0.1679545 -0.13426524 -0.25335115 -0.28014374 0.26499292 -0.40611225 -0.12704347
0.077979825 0.022677045 -0.6121267 -0.24265371 0.25474423 -0.2711555 -0.05912658 -0.5182573
-0.032237638 0.24609362 -0.3710237 0.17917806 -0.048590604 -0.2753018 0.15354899 0.26037562
-0.16296244 -0.08652214 0.228782 -0.034546442 -0.046926025 0.16874798 0.07441668 0.15957724
-0.1609905 0.0034561125 -0.07289375 -0.2667233 0.0011079015 0.2473064 -0.1145409 -0.36160105
0.22815973 0.8118337 -0.16392545 0.20455635 -0.035116445 0.24127164 -0.10507772 -0.05339895
0.60949445 0.4148174 -0.13099933 -0.33822116 0.071029365 -0.34644622 -0.08253235 0.55936754
-0.4698263 0.27664217 0.090923 0.10978345 0.01748976 -0.15475753 -0.114085265 -0.20908698
-0.12481528 -0.26341972 -0.21483925 -0.36758497 0.19616936 0.2736786 0.69330245 0.23862112
-0.096277975 -0.06941801 -0.07727353 -0.14389464 0.63499516 -0.48955113 0.31947738 -0.1295601
0.3619647 0.21523635 -0.5445855 -0.048120346 0.25857577 0.2473166 -0.00023543747 -0.14486198
0.04273418 -0.046744693 -0.1262257 0.03614935 -0.111074895 -0.07460601 -0.15455686 -0.52027595
-0.08238774 0.09369177 -0.57990324 0.2933529 0.22575222 0.19632933 -0.04818111 -0.10781347
-0.22985315 0.026247552 0.16409586 -0.059649006 0.2955139 0.19254223 0.6847975 0.15642264
0.07693922 -0.5785975 -0.43341973 -0.10409093 0.01645377 0.2516646 0.07657133 0.06466157
0.3167993 -0.06015827 0.09780604 0.12217329 0.04507222 -0.04311491 -0.10357417 -0.17553046

weight f4 [16, 64]
00000000: 2891 bc3d 6b0e 6d3e 7709 263e a3a5 433e
00000010: 82f1 9dbe c1f0 8cbe 5bf7 9d3e 5a52 43bd
00000020: dec6 b8bd 44a9 243e d1f1 c5be 3276 8dbe
00000030: 9c17 8d3c 4706 3bbe 303a 6abe 6454 3dbe
00000040: 2fe2 213e b882 253e 2da9 97be c622 a5bd
00000050: def6 eb3e 6f99 c33d cc82 803e f40d 213e
00000060: 1407 0abe 1709 6b3e c074 1b3e 40b6 673c
00000070: 4200 ec3d a56d 7a3e a58d a7bd c4b2 bebe
00000080: 2145 313e 2f37 223e 6bc8 b0bc 6550 773e
00000090: 8cf0 8ebe 76b6 83bd 1f04 66be 0313 373e
000000a0: c0cc 4cbe 02b0 3d3e 5303 b13d ec63 53be
000000b0: 06fe c43d 8bd8 8dbd df73 4abe 6ac9 d93d
000000c0: 9ff8 f9be 5a30 a93d d2bf 803e cd5a 333e
000000d0: a5c3 4c3f 975f 5a3b da27 e0be bf6f 98bd
000000e0: 1fa7 19bd b05b bebe eeef 953e 61f3 01bf
000000f0: 2886 843e f39c b23c 7238 5fbe 2bc5 91bc
00000100: 848f 253f 26ea ccbe 1fcb 603e af23 2dbf
00000110: 78b0 a03d 5c3c be3e 4d4d 13be 1e5c fb3e
00000120: 1cfc 5b3e 0d2b 52bd 1843 8abe 2b3b 80bd
00000130: abaa a4be 2c4f 513e 9abf 50bd 95d3 e7be
00000140: fbe0 dcbe cf3d 7dbe 6530 123e 7220 993d
00000150: 62c4 1e3e 1c6b a3be 88bb 403e 6471 9cbe
00000160: 1fb7 4b3e b6b7 183f 90da 223d 5e38 dcbd
00000170: 9d46 34bf 2dab 11bd 3a41 d4bd 3487 8dbe
00000180: 41e4 023d 0bfc b7bc 1bc9 a63b a959 29be
00000190: 0be8 3a3e 362e 09bf d727 b13c 9aa9 1a3f
000001a0: c54e 593e 5094 163d 10ea 37be 310a ca3d
000001b0: 1b3b 51be 68ea d33e f9b3 383d 9e40 e0bd
000001c0: 5a27 e13e 3aa5 1b3e 651d b7bd 1ac4 febd
000001d0: c786 4cbd 0d64 26be 4727 d7bd b4d9 123e
000001e0: c0a5 ec3e 2283 e4be 0c2e 44be e6bb 233e
000001f0: 0694 b9be 5529 d53d 3b41 abbd 7439 26be
00000200: 9157 88be 1028 8bbd 2934 2e3f d1e1 653e
00000210: c9e1 093d ee86 02bf 4913 9cbd 4c8a 623e
00000220: 922e 00be df1e af3d 5d13 5b3e 0f87 5b3e
00000230: e8f9 9ebe ab1b a23e 34c5 d4bc df7b 4abe
00000240: 7e6a 583c 9d1a 14bf 9a5c a63d 31b5 ffbd
00000250: 6d33 7dbe bd67 3fbe 9637 91bc ad5c 6ebd
00000260: ac2b 873e 5b7d 7fbe 6360 cf3e 9d16 2abc
00000270: f461 11be caaa b7be 6155 cbbd 13b8 5cbd
00000280: ec33 963e c563 4b3d 64e6 e2be c3ac 0b3e
00000290: 0192 97bc 6934 70be 9071 45be a7f6 a0bd
000002a0: c6f9 733e 50b9 b7bd df9a b03d b00c 613f
000002b0: 4c91 613e c9e2 51be 9427 c73e 2a9a 173c
000002c0: c690 c2bc 599c 343e d2ac 3f3e 213e 78bd
000002d0: e6fb 0b3e 5c4e 2dbe 8a6d 18bf c1f6 c3be
000002e0: 3803 e33c 0766 9fbd 0fd6 69be 75a2 803c
000002f0: c9e3 e2bd 3e17 853d 63f3 d63e e595 37bc
00000300: c64e 04be 3efb d5bc 8c20 543e 00db 11be
00000310: 34b6 f53e 77a9 80be d004 4dbd eaa6 2fbf
00000320: e0ce 4cbe 67ac 883d d477 ddbd e050 0d3d
00000330: 4ff2 c13d d2dc 2cbe 67e4 11be 2eb5 86be
00000340: cb20 0b3d 7e10 2ebe 5bea 2bbc e91f 483f
00000350: 26b3 0fbe 8ea1 abbd 6ecf 993e d595 3a3e
00000360: 9909 d13d 2e03 a33e c4eb 1abd 9af7 5a3e
00000370: 28ba 063e 741b 01bf 2ca2 c2be 024f 85be
00000380: 77f5 49be 1277 8bbe 4f69 953e 17b2 143e
00000390: a50f 6f3e 4cb7 82bd 09a8 efbe 3c1c 783e
000003a0: 75d9 d5bd bc55 92be 3b35 0fbe 5e76 abbe
000003b0: 7ef1 683e 3980 173f 90a4 f03e c4e6 453b
000003c0: 7a07 09be f7c4 813d fc1b 9bbd 08ff 063e
000003d0: 1115 2b3e c623 39be b18e 533e b051 f1bd
000003e0: 8add 99ba 93ae 763e 16f5 3fbe 45fa c7ba
000003f0: a156 4f3e a654 6d3d ef7b 77be 3704 f93e
0.09207374 0.23150031 0.16214548 0.19106154 -0.30848318 -0.2752743 0.3085278 -0.04768596
-0.09022306 0.16080195 -0.38661054 -0.27629238 0.017223172 -0.18264113 -0.2287376 -0.18489224
0.15808938 0.16163146 -0.29621258 -0.08063273 0.46086782 0.095507495 0.2509979 0.15727979
-0.13479263 0.22952686 0.15181255 0.014142573 0.11523487 0.24455889 -0.081813134 -0.37245762
0.17311527 0.15841363 -0.021579942 0.24151762 -0.27917898 -0.06431286 -0.2246251 0.17878346
-0.19999981 0.18524173 0.08643212 -0.20643586 0.096187636 -0.06926068 -0.19770764 0.1063412
-0.48822495 0.082611755 0.25146347 0.17515106 0.7998603 0.0033321136 -0.43780404 -0.07443189
-0.037512895 -0.37179327 0.29284614 -0.5076199 0.25883603 0.021803355 -0.21798876 -0.017794212
0.6467211 -0.4002239 0.21952485 -0.67632574 0.07846159 0.37155426 -0.14384957 0.49093717
0.21482891 -0.051310588 -0.27004313 -0.062612854 -0.3216146 0.20440358 -0.050963975 -0.45278612
-0.43140396 -0.2473061 0.14276274 0.074768916 0.15504602 -0.31917655 0.18821537 -0.3055526
0.19894074 0.5965532 0.03975922 -0.10752939 -0.7042025 -0.035563637 -0.103640035 -0.27642214
0.03195596 -0.02245905 0.0050898916 -0.16538109 0.1825258 -0.5358614 0.021625442 0.6041504
0.21221454 0.036762536 -0.17960382 0.09865225 -0.20432703 0.41389775 0.04509351 -0.10949825
0.43975335 0.15199748 -0.089411534 -0.12439747 -0.04993322 -0.16249104 -0.105055384 0.1434086
0.46220207 -0.44631296 -0.1915819 0.15989646 -0.36245745 0.10408274 -0.08362051 -0.16232854
-0.26629308 -0.06794751 0.6804834 0.22449423 0.03366259 -0.50987136 -0.07620866 0.22123069
-0.12517765 0.0855081 0.21394105 0.2143824 -0.31050038 0.31661734 -0.02597294 -0.19773816
0.0132089835 -0.5785311 0.08123131 -0.124857314 -0.24726649 -0.18691917 -0.0177267 -0.05819385
0.26400506 -0.24950163 0.40503225 -0.010381368 -0.14197522 -0.3587249 -0.09928394 -0.053886484
0.29336488 0.049655695 -0.443164 0.13640122 -0.018502237 -0.23457493 -0.19281602 -0.07859545
0.2382575 -0.089708924 0.08623289 0.87909985 0.22028083 -0.20496668 0.38897383 0.009253064
-0.023750674 0.17637767 0.1871827 -0.060606126 0.1367031 -0.16924423 -0.59542143 -0.38274196
0.027711496 -0.07783132 -0.22835563 0.015702466 -0.11078603 0.06498574 0.41982564 -0.011205171
-0.12920675 -0.026120778 0.2071554 -0.14243698 0.47990572 -0.2512929 -0.050053418 -0.68614066
-0.20000792 0.06673508 -0.10813871 0.034500957 0.09470045 -0.16881111 -0.14247285 -0.26310104
0.03396682 -0.16998479 -0.010492886 0.7817369 -0.14033183 -0.083804235 0.3004107 0.18221219
0.10206909 0.31838363 -0.0378225 0.21383515 0.1315695 -0.50432515 -0.38014352 -0.2603684
-0.19722544 -0.2723928 0.29181907 0.14521061 0.23345812 -0.06382617 -0.46807888 0.2422952
-0.10441867 -0.28581035 -0.1398515 -0.33488744 0.22748372 0.5918003 0.4700055 0.0030197361
-0.13381758 0.06336396 -0.07573697 0.13183224 0.16707255 -0.18080053 0.20659901 -0.11783159
-0.0011738997 0.24090032 -0.18745837 -0.0015257081 0.2024789 0.057942055 -0.2416837 0.48636028

weight f4 [16, 64]
00000000: 64d0 b6bd 1edf 7e3d f384 523d 0ebb 7ebe
00000010: 9262 8c3c 4ee5 b7be 8ab2 6dbe 11d7 0c3e
00000020: 32f4 2dbe 884a 16bd 92bc a7be baee 94bd
00000030: b60b 8a3d cd83 2e3e 5042 0b3e 5a54 84be
00000040: c740 733c 0b64 ebbd 3940 5abd 52fc 61be
00000050: 8f3a 48bc 11b3 9abe 2c46 063e 70c3 903d
00000060: 61c3 f93b ed9f 353c 281b 353d 3b4b 02bd
00000070: cc36 153e c6a9 00bf 73a6 6f3e f913 e9bc
00000080: 9f6f e73e 7c5f 8d3d ffcb 5abe dca4 973d
00000090: 68c7 d0be 8c4e babc 16f1 5abd 684c 3f3d
000000a0: 5d26 bfba 4d50 0b3e 4c07 f93d d993 3a3e
000000b0: f9bf 4a3e e826 9c3e ce21 79be e498 ee3e
000000c0: 6f53 943e f7f5 5cbd fcfe 55be 9766 2a3e
000000d0: 79d3 59bc cc9c 30be beb9 2bbe 55b7 c33e
000000e0: 01b6 15be cb47 31be 8c1a c13e 8771 ee3d
000000f0: 83ce 09bf 1386 953d 74d3 8d3e 2588 72be
00000100: a9f8 e13c b1de 4f3d b9d7 8c3d ad44 b9bb
00000110: a921 9b3d 70e4 a1bd a407 42bd 34ea e1bd
00000120: ad73 1dbe bd19 7dbc fea3 30be 6d76 013e
00000130: 14d7 883d 6a09 bcbc 78dc cabc 0da9 bbbd
00000140: b65e c03e 13e7 903e 5810 0bbe b181 f7bc
00000150: 9157 2dbe 689e 63be 63ff 59be 2743 7abe
00000160: aac9 1c3e 8c30 e5bd 8ed1 bc3e ed92 16be
00000170: 3b1b 82be 8f19 b13d f37c 593e 8567 753e
00000180: 6527 523d 6e13 363d 2295 b03e 2492 923e
00000190: 3687 313e 1dd5 4c3e 9b41 b53d 241f 27be
000001a0: f6cc 8ebe b376 913e 56dd 5fbe ce3c ffbd
000001b0: e36a 713e 4f49 2d3d 708f 51be 4e54 eb3d
000001c0: 5031 75bd ab56 49be 8585 4c3e 2bc0 1abd
000001d0: efdf 633d 7ef3 42be 8316 45be 8f55 f13d
000001e0: 5ec9 23bd ec59 cd3c 371d f63d 8095 7c3d
000001f0: bc6e 5fbe 8deb eb3d 3f49 4cbe 3975 0f3e
00000200: 97fe 843e 4da9 863c 5f14 b33e e6b1 d6bb
00000210: a6a9 a73d fbc0 f9bd 7649 3fbc 4217 86bd
00000220: 3321 a2bc 9fcd 183b 9404 c43d 93ef 993c
00000230: 49a6 87be 72f4 83be d1f9 3e3e 2c32 e73d
00000240: c2e9 0d3d e1f0 233d 106c 093d 3033 abbe
00000250: 8850 ac3e 4da9 283e ee84 dbbc cca4 b8ba
00000260: d48f 28bd 57dc 17be cf44 dabe e27d 2c3e
00000270: 884b 57be caf3 f43c 74d9 6d3d ab65 a2bd
00000280: bd57 21be 6a9a 013d 5759 cbbe e123 32be
00000290: c31f 0f3e a095 e9bd 90a9 65bc b84d d53d
000002a0: 5f0a a7be 4f1c c03d 3b02 e23d a317 a9bd
000002b0: 87a6 853e 6a9d 24bd d4ea c1bd 7623 a73d
000002c0: 7b98 76bb a581 be3d 0b1f 403c be42 8abd
000002d0: 1c3a a93d 4c11 a63e ebc7 493d b472 3a3e
000002e0: d791 47be 8969 00bd 64ae 8e3e 7aa3 1dbe
000002f0: abd6 dbbd ddf1 a63d 6820 a23e 7426 03be
00000300: 6f50 8d3e 8d81 e9bd 2b9a 183e a7aa e6bb
00000310: 7f0b babc 7b3e a73e e176 f43d 3b07 103f
00000320: c04b 483e d6c3 47bc f499 edbd 510f cd3e
00000330: 4be9 22be 6d4f 103d 3681 6d3d 158c ab3d
00000340: e5ce 593d e71f bc3d d495 4fbd eb58 cbbc
00000350: eaef 96bd de38 8bbe 650d 30bd e45e 68bd
00000360: 7b3c f73d 0736 133e 0c3b d53d 5043 b2be
00000370: f9db 2d3e d3fa 493e 6e55 71be 4d9b b03e
00000380: 20bd 88be bc87 afbe 20ed acbd d505 893d
00000390: 0947 39be 2d51 0a3e f2f2 96be bed5 3cbe
000003a0: 8131 a0be e3ce 12bd 62df c93d c786 2fbe
000003b0: c465 593d d7f9 d83e 2210 94be 4f27 b8be
000003c0: 6d34 84bd cf8c 02be 0d24 7f3e f074 02bd
000003d0: d7ac 543d 439a 3dbe 9d17 cf3d 34ab b2be
000003e0: 5091 44ba 3ac8 1b3e f98f 0b3e 9fce ebbd
000003f0: 91a4 823d ef01 05be 65d8 763e 76e5 86be
-0.08926466 0.0622245 0.05139632 -0.24876043 0.017136846 -0.35917133 -0.23212638 0.13753916
-0.16987684 -0.036692172 -0.32761055 -0.07272096 0.06740515 0.17042466 0.13599515 -0.25845605
0.014846987 -0.11493691 -0.053283904 -0.22068909 -0.012220993 -0.30214742 0.13112706 0.07068527
0.007622168 0.011085493 0.04421535 -0.031810027 0.14571685 -0.50259054 0.23403339 -0.028451907
0.45202348 0.06902978 -0.21366881 0.07404491 -0.40777135 -0.022742532 -0.053452574 0.046703726
-0.0014583577 0.13604851 0.12159595 0.18220462 0.19799794 0.30498433 -0.24329302 0.4660102
0.28969905 -0.053945508 -0.2089805 0.16640697 -0.013295048 -0.17247313 -0.16770074 0.3822581
-0.1462021 -0.17312543 0.37715566 0.11642747 -0.53830737 0.07300963 0.27700388 -0.23684748
0.02758439 0.050749484 0.06877083 -0.0056539387 0.075747795 -0.07904899 -0.047370568 -0.11030999
-0.15376158 -0.015448031 -0.17250058 0.12642832 0.06681648 -0.022953708 -0.02476333 -0.09163103
0.3757226 0.28301296 -0.13580453 -0.030213209 -0.16927935 -0.22228396 -0.21288829 -0.24439679
0.15311304 -0.111909 0.36878628 -0.14704485 -0.254114 0.08647453 0.2123907 0.23965271
0.0513071 0.044452123 0.3448878 0.2862712 0.17336735 0.20003171 0.08850404 -0.16320473
-0.27890748 0.28410873 -0.21861777 -0.124627694 0.2357593 0.04230624 -0.20464873 0.11490689
-0.05986148 -0.19661967 0.19972809 -0.037780922 0.05563348 -0.19038197 -0.19246869 0.11783897
-0.03998696 0.025067292 0.12017291 0.06166601 -0.21819586 0.11519537 -0.19949816 0.1400956
0.25975487 0.01643815 0.3497648 -0.006551969 0.08186655 -0.12195011 -0.011675229 -0.06547405
-0.019791221 0.002331592 0.09571186 0.018790996 -0.26494053 -0.25772434 0.18649985 0.112888664
0.034646757 0.040024642 0.033550322 -0.3343749 0.3365519 0.16470833 -0.026796784 -0.0014087199
-0.04115279 -0.14830147 -0.42630622 0.16844895 -0.21024907 0.029901404 0.058068708 -0.07929548
-0.15756126 0.0316414 -0.39716598 -0.17396499 0.1397696 -0.11405492 -0.014017478 0.10415214
-0.326251 0.093803994 0.11035582 -0.082564615 0.26103613 -0.040189184 -0.09468618 0.081610605
-0.0037627507 0.093020715 0.011726151 -0.06751011 0.082630366 0.3243507 0.049262922 0.18207818
-0.19489227 -0.031350646 0.27867424 -0.15394393 -0.10734304 0.081516005 0.3166535 -0.12807637
0.27600428 -0.11401663 0.1490256 -0.0070393863 -0.02271056 0.32664856 0.11936737 0.5626103
0.19560146 -0.012192687 -0.1160163 0.40050748 -0.15909307 0.035231996 0.057984553 0.08376328
0.053175826 0.091857724 -0.050679997 -0.024822673 -0.07369979 -0.27191824 -0.042981524 -0.05673112
0.120720826 0.14376079 0.10411653 -0.3481698 0.16978444 0.19724588 -0.23567745 0.34493485
-0.2670679 -0.34283245 -0.084436655 0.066905655 -0.18093504 0.13507529 -0.29482228 -0.18440911
-0.31287768 -0.035841834 0.0985706 -0.17141257 0.053075567 0.42378113 -0.28918558 -0.3596749
-0.06455312 -0.12749027 0.24916096 -0.0318498 0.051922645 -0.18515877 0.10111926 -0.34896243
-0.000749846 0.15213099 0.1362914 -0.11514019 0.06379045 -0.12989019 0.24105985 -0.2634694

tril f4 [30, 30]
00000000: 0000 803f 0000 0000 0000 0000 0000 0000
00000010: 0000 0000 0000 0000 0000 0000 0000 0000
00000020: 0000 0000 0000 0000 0000 0000 0000 0000
00000030: 0000 0000 0000 0000 0000 0000 0000 0000
00000040: 0000 0000 0000 0000 0000 0000 0000 0000
00000050: 0000 0000 0000 0000 0000 0000 0000 0000
00000060: 0000 0000 0000 0000 0000 0000 0000 0000
00000070: 0000 0000 0000 0000 0000 803f 0000 803f
00000080: 0000 0000 0000 0000 0000 0000 0000 0000
00000090: 0000 0000 0000 0000 0000 0000 0000 0000
000000a0: 0000 0000 0000 0000 0000 0000 0000 0000
000000b0: 0000 0000 0000 0000 0000 0000 0000 0000
000000c0: 0000 0000 0000 0000 0000 0000 0000 0000
000000d0: 0000 0000 0000 0000 0000 0000 0000 0000
000000e0: 0000 0000 0000 0000 0000 0000 0000 0000
000000f0: 0000 803f 0000 803f 0000 803f 0000 0000
00000100: 0000 0000 0000 0000 0000 0000 0000 0000
00000110: 0000 0000 0000 0000 0000 0000 0000 0000
00000120: 0000 0000 0000 0000 0000 0000 0000 0000
00000130: 0000 0000 0000 0000 0000 0000 0000 0000
00000140: 0000 0000 0000 0000 0000 0000 0000 0000
00000150: 0000 0000 0000 0000 0000 0000 0000 0000
00000160: 0000 0000 0000 0000 0000 803f 0000 803f
00000170: 0000 803f 0000 803f 0000 0000 0000 0000
00000180: 0000 0000 0000 0000 0000 0000 0000 0000
00000190: 0000 0000 0000 0000 0000 0000 0000 0000
000001a0: 0000 0000 0000 0000 0000 0000 0000 0000
000001b0: 0000 0000 0000 0000 0000 0000 0000 0000
000001c0: 0000 0000 0000 0000 0000 0000 0000 0000
000001d0: 0000 0000 0000 0000 0000 0000 0000 0000
000001e0: 0000 803f 0000 803f 0000 803f 0000 803f
000001f0: 0000 803f 0000 0000 0000 0000 0000 0000
00000200: 0000 0000 0000 0000 0000 0000 0000 0000
00000210: 0000 0000 0000 0000 0000 0000 0000 0000
00000220: 0000 0000 0000 0000 0000 0000 0000 0000
00000230: 0000 0000 0000 0000 0000 0000 0000 0000
00000240: 0000 0000 0000 0000 0000 0000 0000 0000
00000250: 0000 0000 0000 0000 0000 803f 0000 803f
00000260: 0000 803f 0000 803f 0000 803f 0000 803f
00000270: 0000 0000 0000 0000 0000 0000 0000 0000
00000280: 0000 0000 0000 0000 0000 0000 0000 0000
00000290: 0000 0000 0000 0000 0000 0000 0000 0000
000002a0: 0000 0000 0000 0000 0000 0000 0000 0000
000002b0: 0000 0000 0000 0000 0000 0000 0000 0000
000002c0: 0000 0000 0000 0000 0000 0000 0000 0000
000002d0: 0000 803f 0000 803f 0000 803f 0000 803f
000002e0: 0000 803f 0000 803f 0000 803f 0000 0000
000002f0: 0000 0000 0000 0000 0000 0000 0000 0000
00000300: 0000 0000 0000 0000 0000 0000 0000 0000
00000310: 0000 0000 0000 0000 0000 0000 0000 0000
00000320: 0000 0000 0000 0000 0000 0000 0000 0000
00000330: 0000 0000 0000 0000 0000 0000 0000 0000
00000340: 0000 0000 0000 0000 0000 803f 0000 803f
00000350: 0000 803f 0000 803f 0000 803f 0000 803f
00000360: 0000 803f 0000 803f 0000 0000 0000 0000
00000370: 0000 0000 0000 0000 0000 0000 0000 0000
00000380: 0000 0000 0000 0000 0000 0000 0000 0000
00000390: 0000 0000 0000 0000 0000 0000 0000 0000
000003a0: 0000 0000 0000 0000 0000 0000 0000 0000
000003b0: 0000 0000 0000 0000 0000 0000 0000 0000
000003c0: 0000 803f 0000 803f 0000 803f 0000 803f
000003d0: 0000 803f 0000 803f 0000 803f 0000 803f
000003e0: 0000 803f 0000 0000 0000 0000 0000 0000
000003f0: 0000 0000 0000 0000 0000 0000 0000 0000
1.0 0.0 0.0 0.0 0.0 0.0 0.0 0.0
0.0 0.0 0.0 0.0 0.0 0.0 0.0 0.0
0.0 0.0 0.0 0.0 0.0 0.0 0.0 0.0
0.0 0.0 0.0 0.0 0.0 0.0 1.0 1.0
0.0 0.0 0.0 0.0 0.0 0.0 0.0 0.0
0.0 0.0 0.0 0.0 0.0 0.0 0.0 0.0
0.0 0.0 0.0 0.0 0.0 0.0 0.0 0.0
0.0 0.0 0.0 0.0 1.0 1.0 1.0 0.0
0.0 0.0 0.0 0.0 0.0 0.0 0.0 0.0
0.0 0.0 0.0 0.0 0.0 0.0 0.0 0.0
0.0 0.0 0.0 0.0 0.0 0.0 0.0 0.0
0.0 0.0 1.0 1.0 1.0 1.0 0.0 0.0
0.0 0.0 0.0 0.0 0.0 0.0 0.0 0.0
0.0 0.0 0.0 0.0 0.0 0.0 0.0 0.0
0.0 0.0 0.0 0.0 0.0 0.0 0.0 0.0
1.0 1.0 1.0 1.0 1.0 0.0 0.0 0.0
0.0 0.0 0.0 0.0 0.0 0.0 0.0 0.0
0.0 0.0 0.0 0.0 0.0 0.0 0.0 0.0
0.0 0.0 0.0 0.0 0.0 0.0 1.0 1.0
1.0 1.0 1.0 1.0 0.0 0.0 0.0 0.0
0.0 0.0 0.0 0.0 0.0 0.0 0.0 0.0
0.0 0.0 0.0 0.0 0.0 0.0 0.0 0.0
0.0 0.0 0.0 0.0 1.0 1.0 1.0 1.0
1.0 1.0 1.0 0.0 0.0 0.0 0.0 0.0
0.0 0.0 0.0 0.0 0.0 0.0 0.0 0.0
0.0 0.0 0.0 0.0 0.0 0.0 0.0 0.0
0.0 0.0 1.0 1.0 1.0 1.0 1.0 1.0
1.0 1.0 0.0 0.0 0.0 0.0 0.0 0.0
0.0 0.0 0.0 0.0 0.0 0.0 0.0 0.0
0.0 0.0 0.0 0.0 0.0 0.0 0.0 0.0
1.0 1.0 1.0 1.0 1.0 1.0 1.0 1.0
1.0 0.0 0.0 0.0 0.0 0.0 0.0 0.0

weight f4 [16, 64]
00000000: 5623 80be d63d 09be bb1e aa3e c5db ef3e
00000010: 0e1f da39 79f3 353e 0142 e2bd d211 ecbc
00000020: dec3 3ebe f7a7 463c c496 d43e f88b d03d
00000030: a4e2 c7bd 99bb 303d 7e1e 6ebe 2ca7 7d3e
00000040: 3c1c f93c 7688 1abf 7d00 0cbf d380 4cbe
00000050: d086 0c3f d881 31be ae8c fc3d 7771 a7bd
00000060: a80d 8abe 4a07 1f3d 6905 adbe 62fd b83d
00000070: 4b93 41be 0ce2 303e ce9d c0be b066 20ba
00000080: 6871 78bd 310d 7dbe b8db 8d3e d3ae 183d
00000090: 67e5 18bd 9e5b 65be 6674 3c3c 7d07 a4bd
000000a0: f440 49bf ff86 cfbd e5be 8cbd 6939 c53e
000000b0: fd05 4ebe a0b1 24bd 0ca4 383e 1a12 d13d
000000c0: 1364 253c e7db 67be dada 033f c681 be3d
000000d0: 0672 a0bc 1dcb ac3e 9e83 573e 4a02 e13e
000000e0: e665 4e3e b371 15bf 660a c23e 6176 50be
000000f0: 65d1 82be e15e a23e 3f3a 033f b17b 483e
00000100: d1a8 44be e943 f2bc cea7 b6bd 5155 01be
00000110: dc16 74bf 4f81 023f a274 a0bd b5e2 36be
00000120: 7e36 8abe 485b 823d 7178 adbe 89c3 5d3e
00000130: 7ca8 1e3e a1fc a43e b928 5e3b 478e 093e
00000140: 81b1 d8be 6f8a 653e 4510 debe 8ac3 8bbe
00000150: a1ac e43d a69f 63bd fd6c c1bd b9a3 4ebd
00000160: 47b8 dfbd f01b d63d 1936 053f cb00 533e
00000170: 355b 7f3d 165d df3d d100 f6be d60b 373e
00000180: 556d 5f3c f05f 823e bd23 c63e ccd9 1a3f
00000190: 97c9 00be 2de2 503e c36e 243f 759e adbe
000001a0: 5af9 923e a169 173d 684e e2bd 6224 a13d
000001b0: 334c 893e fa7f 25be 3109 6c3e a4c4 dc3e
000001c0: 5853 da3c e89e a43e b7e3 993d 9fc6 1dbf
000001d0: 3fc7 98bd fdcc 8cbe a4d4 edbd 95f7 eebe
000001e0: f983 dcbd 6163 7b3e 324e 033f f1cb 55bc
000001f0: 91a1 babc 53bd 12bd df39 6cbd bba3 e3be
00000200: 4144 a33d 83aa f83d 2811 b03d f143 04be
00000210: 23fe 4ebe f42b 71bd 6b35 d8bd a650 b73d
00000220: 667d f6be 1337 c8be 7f3c a0be 221f c4be
00000230: 23f6 763e 8dcb dcbe 5bd4 333f a65f a63d
00000240: 90b0 cabd 0388 5d3e 546f 16bf 673d 1fbe
00000250: 0062 263e 7bfb 31be 89b8 203e d9b6 803e
00000260: e669 60bd adcf 4b3e 9f43 dfbe a1c7 363e
00000270: aed1 923d f4c8 67be 9cbb cb3d bada d7be
00000280: c5f6 53be e011 03be 51f2 34bf 8921 8c3e
00000290: 93fb 2c3e 4eb6 29be 3edc 833e ef91 a73d
000002a0: 6000 743e cf8b b8bc 79b8 f63e 88c3 903e
000002b0: 5529 763e ec87 a43e 321d c1be 40b5 38be
000002c0: 50b8 853d 51e8 ac3e 5761 3c3e cbe0 fc3e
000002d0: d01d 1d3e 8c79 3cbe 3343 923d d923 06be
000002e0: 199a 85be b319 923e 63f7 a03e 79a8 debe
000002f0: 50d0 9e3e 3b23 75bc 84a3 a43e 7ebc 17be
00000300: 6f6f b3be 71b4 e63d a257 a33e b39d e8bd
00000310: f934 913c ce7f 3bbf ee5c bebe 4a05 d53e
00000320: 5e67 0dbf 29ea 083f 37e1 95be f599 16be
00000330: 91a3 ec3e cc93 01be 94aa 9e3e 1d8f 04be
00000340: 993e a9be f02c 0c3d 0cc8 0cbf 3f53 853e
00000350: 82b7 973c b8f8 46bd caed b13c 08ee b7be
00000360: 0941 b33d 4d83 893e 0f58 aebd aa50 67bd
00000370: f4d7 013f f39a 373e 66e8 ccbe 71bb b0be
00000380: d5cc d73e 38d6 f0bd b69e 44be d889 ab3e
00000390: b0c1 9abd 1352 52bd 48e1 5bbd 5259 bbbe
000003a0: 26c7 72be e7e4 07bf f61a a7be 1a0f 713d
000003b0: 33b3 003f 092c f53e 854b 8a3e bd7f ee3c
000003c0: 5a79 b7bd 7ae2 d4bd 30ee 303e 4464 e03e
000003d0: ac2c 703e 4443 693e 38d8 43be ffad 16bf
000003e0: 69df af3d 2593 bbbd c96d 063f 4a8a 263e
000003f0: af18 783d 3a07 223e 0038 11be d4bd ac3e
-0.2502696 -0.13402495 0.3322657 0.46847358 0.00041603338 0.17768659 -0.110477455 -0.028817091
-0.18629405 0.012125007 0.41521275 0.10182947 -0.09760025 0.043147657 -0.2325382 0.24770802
0.030408971 -0.6036447 -0.54688245 -0.19971018 0.5489321 -0.17334688 0.1233152 -0.081759386
-0.26963544 0.03882531 -0.3379319 0.09032704 -0.18903844 0.1727373 -0.37620395 -0.0006118817
-0.060655028 -0.24712063 0.27706695 0.0372761 -0.03732815 -0.2239823 0.011502361 -0.08009241
-0.78614736 -0.1013317 -0.06872348 0.38520363 -0.20119472 -0.04020846 0.18031329 0.10208531
0.01009466 -0.2264248 0.51505816 0.09302096 -0.01958562 0.33748713 0.21046302 0.4394706
0.20156059 -0.58376616 0.37898558 -0.20357658 -0.2555038 0.31713012 0.5126075 0.19578435
-0.19205023 -0.029573398 -0.08918725 -0.12630202 -0.9534738 0.5097856 -0.07834746 -0.1785992
-0.269947 0.06365067 -0.33880952 0.21656622 0.15493959 0.3222399 0.0033898784 0.13433181
-0.42322925 0.2241609 -0.43371788 -0.27297622 0.11165739 -0.055572174 -0.09444616 -0.050449107
-0.1092382 0.104545474 0.5203567 0.20605771 0.06234284 0.109064266 -0.48047498 0.17875609
0.013636907 0.2546382 0.3869914 0.6048858 -0.125769 0.20398779 0.6423151 -0.33909956
0.28705865 0.03696597 -0.11050111 0.078682676 0.26815948 -0.161621 0.23050381 0.43118775
0.02665107 0.32152486 0.07514136 -0.61631197 -0.07459878 -0.27500144 -0.116128236 -0.46673265
-0.10767359 0.24549629 0.5129119 -0.013049112 -0.022782119 -0.035825085 -0.057672378 -0.44460854
0.07972003 0.121418975 0.08597022 -0.12916543 -0.20214133 -0.058879808 -0.10557064 0.08950929
-0.48142546 -0.39104518 -0.31296155 -0.38305002 0.24117331 -0.43124047 0.70245904 0.08123712
-0.09896958 0.21633916 -0.58763623 -0.15550767 0.16248322 -0.17381088 0.15695395 0.25139502
-0.054788493 0.19903441 -0.43606278 0.1784959 0.071688995 -0.22635251 0.09947893 -0.42159063
-0.20699604 -0.12799788 -0.70682245 0.27369335 0.16892843 -0.1657345 0.2575397 0.081821315
0.23828268 -0.022527603 0.48187616 0.28274179 0.24039204 0.3213495 -0.37717587 -0.18037891
0.065292954 0.33770993 0.18396507 0.49390253 0.15343404 -0.18405741 0.071417235 -0.13099612
-0.2609413 0.28535232 0.3143874 -0.4348791 0.31018305 -0.014962013 0.32156003 -0.14817998
-0.35045955 0.11264885 0.31902796 -0.11358204 0.017725455 -0.7324189 -0.37180275 0.41605598
-0.5523585 0.534823 -0.29273388 -0.14707167 0.4621854 -0.12654036 0.30989516 -0.12945218
-0.3305557 0.034222543 -0.5499275 0.26040074 0.01852012 -0.04857704 0.021719832 -0.3592379
0.08752639 0.26857987 -0.085128896 -0.05647341 0.50720143 0.17930202 -0.40021056 -0.34518006
0.42148462 -0.11759609 -0.19201168 0.33503604 -0.07556474 -0.051347803 -0.05368164 -0.36591583
-0.23708782 -0.5308365 -0.32637757 0.058852293 0.50273436 0.4788516 0.27010742 0.029113645
-0.08958693 -0.103947595 0.17278361 0.43826497 0.23454541 0.22779566 -0.1912545 -0.58859247
0.08587534 -0.09158925 0.5251127 0.1626369 0.060570415 0.15823069 -0.14181519 0.33738577
