Assignment2/notebooks/models/transformer-encoder.pth (torch, 446198 bytes, 48 tensors)

weight f4 [29, 64]
000000 07 08 52 3f a5 05 b4 3e 57 39 f7 be 6b f9 15 3f
       0.820435 0.35160556 -0.48285934 0.58583707
000010 8d 40 b2 3d 8e 50 35 3f 36 49 3c bf 82 31 de be
       0.08703718 0.7082604 -0.7354921 -0.43397146
000020 ea 10 90 3e ba 0c 75 bf 18 56 ed 3d f2 5b 2e bf
       0.28137904 -0.95722544 0.11588687 -0.6810905
000030 f2 6d 58 bf aa a4 39 3e 6c 34 5a be 88 68 eb 3e
       -0.84542763 0.1812922 -0.2130906 0.4597819
000040 90 15 42 bf e3 d5 c3 be b6 9c 91 be 7d 87 61 bf
       -0.7581415 -0.3824912 -0.28439873 -0.88097364
000050 e7 dd ea 3f 77 3d ad 3e 9e 7d 65 be 3e a3 65 3f
       1.8348969 0.33835956 -0.224112 0.8970221
000060 ba 12 83 bf 44 cc be be 4f ec 6e bf bd 8a 82 be
       -1.024009 -0.37265217 -0.9332933 -0.25496474
000070 18 40 c9 bd 15 72 aa 3e 6e 18 03 bf 10 cd 29 3f
       -0.09826678 0.33290163 -0.5120915 0.66328526
000080 05 b2 63 3e 3d f5 fe 3e 40 24 a7 be f7 17 44 bf
       0.22235878 0.49796477 -0.32644844 -0.7659907
000090 58 5a 41 3f ab 5c 3f bf 87 56 10 bf dc 43 ca bd
       0.7552848 -0.74750775 -0.5638203 -0.098762244
0000a0 79 9c d2 3e d5 86 4e bd cf 1b a2 3e f7 97 bb 3f
       0.41135004 -0.050421555 0.3166184 1.4655751
0000b0 a1 4a 2e bf ce 17 bf be fc 1b 92 bf eb ff 2f be
       -0.68082625 -0.3732285 -1.141479 -0.17187469
0000c0 6d f6 7c bf c5 8a b7 bd 2f 28 cc be 1d 08 46 bf
       -0.98813516 -0.08962015 -0.39874408 -0.7735613
0000d0 b3 fa 81 3e 66 13 21 3f 68 bb 14 bf 20 84 67 3e
       0.2538658 0.62920225 -0.5809846 0.22608995
0000e0 85 ba 7a bf 92 d6 11 3f 91 d8 94 3f 34 0a 43 c0
       -0.97940856 0.56968033 1.1628591 -3.0474977
0000f0 52 c0 57 bf 94 78 bf 3e 7d 63 21 3e 1e 14 e0 3f
       -0.8427783 0.3739668 0.15760608 1.7506139
000100 48 5b 24 3f 66 fc 10 bf 91 83 2a 3e 45 ab b9 3f
       0.64201784 -0.5663513 0.16651751 1.4505392
000110 33 53 80 3f fc 4b 90 be a2 37 8d be d0 bb 84 3f
       1.002539 -0.2818297 -0.27581507 1.0369816
000120 71 4d 21 3f 94 6f f6 3d 59 a1 14 3f fd 27 63 3e
       0.6300879 0.120330006 0.58058697 0.22183223
000130 66 05 7c 3e 53 c2 6d 3f fc f0 ae be 3b f7 56 be
       0.24611434 0.9287464 -0.3416823 -0.20992748
000140 c9 85 20 3e 9d 7b 41 3f 17 6f 5e 3e ac 1d 79 3f
       0.15676035 0.75579244 0.21722065 0.973109
000150 82 bc 08 3f 9e 51 37 3f 75 2e 40 bd 91 e1 c7 be
       0.5341264 0.7160891 -0.046919305 -0.3903928
000160 21 1b 39 40 ca e8 a1 be 63 16 38 3f 98 e9 a9 3e
       2.8922808 -0.31622916 0.7190916 0.3318603
000170 f6 45 01 be f0 88 0d 3f d0 12 5e 3f 03 6a 10 3f
       -0.12624344 0.55287075 0.86747456 0.5641176
000180 aa 32 1a 3f db fa af be 82 f5 10 bd 7e 9f e4 3e
       0.6023356 -0.34371075 -0.035390384 0.44652933
000190 23 d2 c2 bf ad e3 2b bf 80 6a 4c bf 69 7f 6c 3f
       -1.5220379 -0.6714428 -0.79850006 0.9238191
0001a0 9a f3 1f 3f 7b 27 7e bf 0b 6c 63 be 9d 1b 91 3f
       0.6248108 -0.9927899 -0.22209184 1.1336552
0001b0 7a 18 cb be ca fd 55 bf a9 bd b0 be 30 65 f3 be
       -0.39667112 -0.83590376 -0.345197 -0.47538137
0001c0 8a 04 2b 3e 3d c5 69 bf 73 1f 2e 3f 92 e9 30 bf
       0.1670095 -0.91316587 0.6801674 -0.691064
0001d0 db 54 23 3f e5 0d 13 bf 46 6e 9b bf eb be b6 bd
       0.63801354 -0.57443076 -1.2143028 -0.089231335
0001e0 2d 51 a3 3e b4 bb 58 3e d7 f0 d7 be 33 1d ef 3d
       0.3189787 0.21165353 -0.42175934 0.11675491
0001f0 be 2a 51 3f 5c 77 c8 bd 6e be e4 3f 34 e0 c9 be
       0.81705844 -0.09788391 1.7870615 -0.39428866
000200 e5 75 77 bd ce c9 19 be a1 52 41 bf 11 e1 96 3f
       -0.060415167 -0.15018389 -0.75516707 1.1787435
000210 be 54 69 3e 9e b0 15 bf 57 c9 80 3f 81 b7 1a bd
       0.22786233 -0.5847262 1.0061444 -0.03777266
000220 7e 91 94 3f fb 1a 23 3f 5e 42 87 3f 80 97 2d bf
       1.1606901 0.63713044 1.0567129 -0.67809296
000230 ae d0 c6 3e 72 d0 9c 3e c5 7c c2 3e 7b fd 9e be
       0.38831085 0.3062778 0.37985817 -0.31052765
000240 7e 9f 07 3f be cb c6 be c1 ca 9d 3c f8 90 cc 3f
       0.5297774 -0.38827318 0.01926172 1.5981741
000250 d4 ba 11 3f db d2 b3 3e c8 db 8d 3f 2b f6 2d 3e
       0.569257 0.35121807 1.1082697 0.16988437
000260 61 4f 61 3e 3f a6 9a 3f cd ff bf be b3 86 84 be
       0.22002937 1.2081984 -0.37499848 -0.25884017
000270 4c a7 41 3f 34 9a 46 bf 27 99 7f bf 5f 06 ba 3e
       0.756459 -0.77579045 -0.99843067 0.36332986
000280 ad a4 15 3d 31 d5 fb 3e 31 91 18 bf 74 a6 8d be
       0.036534 0.4918609 -0.59596545 -0.27666056
000290 ef 79 07 bf ea c0 23 3d 67 9e af 3d 42 e4 6b bf
       -0.5292043 0.0399789 0.08575135 -0.9214517
0002a0 0b ef 78 3e 59 f9 2d 3f 2e 44 db be f9 50 51 be
       0.24309938 0.679586 -0.42825454 -0.20441045
0002b0 21 60 47 bf 16 08 1f bf 7c c2 e9 be f3 2a 55 3f
       -0.77881056 -0.62121713 -0.45656192 0.8326866
0002c0 99 43 fd 3b 3c c5 0d 3d 51 00 99 be fb be 4a bf
       0.0077290055 0.034611925 -0.29883054 -0.79197663
0002d0 7b 60 75 be 95 dc 2d 3e 70 ef 71 be a1 94 ea 3d
       -0.23962586 0.16978677 -0.23626494 0.1145413
0002e0 d2 d8 fc 3e 06 92 1f be a6 b3 b4 be 28 be b1 be
       0.4938417 -0.15583047 -0.3529331 -0.3471539
0002f0 94 6f ac 3e 1a 90 77 3d c4 fe 9a 3e 42 a3 af bf
       0.33678877 0.06044016 0.30272496 -1.3721697
000300 60 15 32 3e e2 b1 2e 3d b3 b2 e5 3f e9 77 32 3f
       0.17390966 0.04265011 1.794516 0.6971422
000310 5e fa b7 bf 37 75 28 3e 94 35 4b be 0f 8a 8e 3e
       -1.4373281 0.16450964 -0.19844657 0.27839705
000320 2c 6d 11 c0 5b 06 b2 3d d0 fb 7e 3f b1 1c 1a bf
       -2.2722883 0.086926185 0.99602985 -0.6020003
000330 da eb d4 3d 03 1f 50 be c8 34 08 be ac 92 8f 3f
       0.103965476 -0.2032433 -0.13301384 1.1216636
000340 f1 86 69 3d 67 0f 41 bf 26 ce 1b 40 e5 5b df 3f
       0.057013456 -0.7541413 2.4344573 1.7449919
000350 aa 1d 9a bd 7f 13 8b bf 60 5b d9 be 3f 04 54 3f
       -0.07525189 -1.0865325 -0.42452526 0.8281898
000360 70 91 1b 3e dc 5d 0b 3f b8 9e 32 be b6 aa cd bb
       0.15192199 0.54440093 -0.17443359 -0.006276454
000370 ee 94 44 be 42 26 2b 3d 70 8b 91 bf 98 4a b0 be
       -0.19197437 0.041784532 -1.1370678 -0.3443191
000380 fc 73 d5 bf 52 53 01 3f 32 71 8b 3f af c5 cd 3e
       -1.6676021 0.5051776 1.089392 0.40189883
000390 09 a9 7e 3f 32 a1 d6 be 35 65 9c 3f fd da b0 be
       0.9947668 -0.41919857 1.2218386 -0.34542075
0003a0 0f 0a 8a bf cc ab 24 3d a6 be d2 be 53 cd d2 3e
       -1.078432 0.0402029 -0.41161078 0.41172275
0003b0 53 b9 0f c0 8d 96 77 bf 71 3a e1 be 28 5c a2 be
       -2.2456863 -0.967141 -0.439899 -0.31710935
0003c0 7f a3 3e 3f a8 a7 b8 3f ee d4 16 3e 9d 7a 5a 3d
       0.74468225 1.4426165 0.14729664 0.05333959
0003d0 5b a5 17 3e 0c 37 c0 be ed e1 19 bf b7 43 9d be
       0.14809172 -0.37541997 -0.6011036 -0.30715725
0003e0 2d 43 1b be 97 bd bc 3d 06 85 38 3f 15 b3 74 be
       -0.15162344 0.09215849 0.7207798 -0.2389644
0003f0 e3 06 1f be 34 14 62 3f 9c 8f ec bf 0d 12 8a bf
       -0.15529971 0.8831208 -1.8481326 -1.0786759

weight f4 [30, 64]
000000 d1 a5 10 3f da e5 93 3f 7b 11 89 3f 81 ed bb 3d
       0.56503016 1.155452 1.070846 0.0917616
000010 18 b4 8c bf 66 44 c0 bd 11 8d 81 3b e4 5d 46 bf
       -1.099246 -0.09388046 0.003953584 -0.77487016
000020 e4 03 a4 3e cc db 5b 3f 24 a6 5d 3e 55 7a 92 3f
       0.32034218 0.8588226 0.21645409 1.1443583
000030 b0 7f cf bd f9 41 59 3e 54 fd 27 bf 05 23 7c 3e
       -0.10131776 0.21216573 -0.65620923 0.24622734
000040 2a de 9b be de 5a a9 3f f0 0f 92 bf 7f 7f 80 3e
       -0.30442935 1.3230855 -1.1411114 0.25097272
000050 37 85 1e 3f d7 17 96 bf f2 52 66 bf 33 16 e7 be
       0.6192202 -1.1726025 -0.89970315 -0.45134124
000060 cf 35 0c 3e 18 e2 05 bf 4d 29 94 3f 3a 48 4c 3f
       0.13692401 -0.52298117 1.1575104 0.7979771
000070 a1 af ea be 7e 29 9d bf 71 6a fa 3e b3 21 62 bf
       -0.4583712 -1.2278287 0.48909333 -0.8833267
000080 69 fe b1 3f 9b bc 46 bd 11 99 d5 bf 20 96 ed 3f
       1.3905765 -0.048519712 -1.6687337 1.856144
000090 f9 c3 48 3f 56 e4 5d 3d 86 36 42 bf a1 22 1e 3e
       0.7842403 0.054172836 -0.75864446 0.15442897
0000a0 85 27 01 3f d4 a5 53 bf 1b ce 5c bf e1 7b 87 bf
       0.50450927 -0.8267491 -0.8625199 -1.058468
0000b0 4c 79 80 be 30 d4 b8 3e 4e 90 8e 3f 6d 94 5b bf
       -0.25092542 0.36099386 1.1137788 -0.85773355
0000c0 08 7e c9 bf 63 23 a5 3f f5 09 7e bf 5f e6 d4 be
       -1.5741587 1.2901424 -0.99233943 -0.4158201
0000d0 10 82 7e bf e2 da c8 bf 41 0f 85 3f 5a 71 47 bf
       -0.9941721 -1.5691798 1.039528 -0.77907336
0000e0 15 f8 93 3f 12 f0 7e 3f ff 48 bb 3e 08 9b 0d c0
       1.1560084 0.9958507 0.3657913 -2.2125874
0000f0 4d 4a a2 bf 36 bf 45 3f 13 2d c5 3d 99 1e c8 3f
       -1.2678925 0.7724489 0.09627738 1.5634338
000100 f7 31 7a bf 8a 96 e9 be e7 84 5b 3e cc a3 0a 3f
       -0.9773249 -0.45622665 0.21437417 0.54156184
000110 0f 02 48 3e 16 9f bf 3e a2 e0 87 bf 87 da d7 be
       0.19532035 0.3742606 -1.0615427 -0.4215891
000120 10 48 7d be e7 66 0c be 6c 38 90 bf 31 23 24 bf
       -0.24734521 -0.13711129 -1.1267219 -0.641162
000130 af d7 c1 3e f1 1b 88 3f ff 09 8d bf c7 6f 34 3f
       0.37859866 1.0633527 -1.1018676 0.7048306
000140 0f 7b ca 3e 5b 63 03 3f 93 fd 2b 3e 4d d2 58 bf
       0.3954701 0.5132348 0.1679595 -0.84695894
000150 db 36 9b 3f 85 1c 33 bf b6 42 7d bf 33 f0 cb 3f
       1.2126116 -0.6996539 -0.9892992 1.5932678
000160 55 84 b3 bf d3 e3 bb bd 99 88 9c 3e 45 b9 47 bf
       -1.402476 -0.091743134 0.30572966 -0.78017074
000170 81 55 d7 be 06 b5 b9 bf 81 f4 fa 3d dd f6 78 bf
       -0.42057422 -1.4508369 0.12253667 -0.97251683
000180 7d 8a 2d bf a9 2b 77 bf 76 d8 c7 3e 71 16 86 bf
       -0.6778944 -0.96550995 0.39032334 -1.0475599
000190 0e c9 d1 3e 2e 7f 52 be 58 7b 86 be 44 44 ea 3d
       0.40973705 -0.20556328 -0.2626598 0.11438802
0001a0 88 c1 13 3e 35 5f 89 bf d4 38 b1 be 5a 3c 8a bf
       0.14429295 -1.073218 -0.3461367 -1.0799668
0001b0 28 52 bb 3e bc 7c 60 3f 56 2f c7 3e 79 90 2f bf
       0.36586118 0.8769033 0.38903302 -0.6857982
0001c0 96 5d c6 bd 72 08 3e 3f 41 3c 2f 3f 92 0c 91 bf
       -0.09685819 0.74231637 0.68451315 -1.1331961
0001d0 d7 ec df bf fa 86 48 3f c4 37 90 3f 03 b4 ff be
       -1.7494153 0.7833096 1.1267018 -0.49942026
0001e0 3e a4 05 be 38 e4 ca 3f 49 69 e5 3a e7 7e 9a 3e
       -0.13050935 1.5850897 0.0017502691 0.30174944
0001f0 94 30 8b be 90 b4 a9 be d8 53 4c 3f 6b 52 22 3e
       -0.271855 -0.3314557 0.79815435 0.15851752
000200 8c c2 27 bf 26 72 fb 3d 8a 4b 0d 3f 66 63 e4 bf
       -0.6553123 0.122776315 0.5519339 -1.7842834
000210 08 85 7b 3f f8 24 0a 3f 8e 04 fd bd 02 b9 1a 3e
       0.98249865 0.5396266 -0.12354384 0.15109637
000220 0c 62 fa bd 7c e3 56 bf 3e eb 2c bf 77 9b e8 3e
       -0.12225732 -0.83940864 -0.6754645 0.4543111
000230 aa 66 2a 3e e1 d9 e7 3d 50 cd 1d be 28 eb a4 3e
       0.16640726 0.11320854 -0.15410352 0.3221066
000240 f2 f1 1e bb 4e f3 76 be bb 88 e8 3f 97 ea a7 3f
       -0.0024253097 -0.24116251 1.8166727 1.3118466
000250 39 54 3e bf 3c bd 47 bf 8a 5b 9f 3d 11 43 a0 bd
       -0.74347264 -0.78023124 0.077811316 -0.07825292
000260 5e b8 7d bf 72 be af 3e 77 63 3f bf be 91 a0 3f
       -0.99109447 0.34324986 -0.74761146 1.2544477
000270 66 58 f5 bf 71 db 53 bf e8 39 29 bf 6e 21 e5 3e
       -1.9167602 -0.82756716 -0.6610398 0.44752067
000280 db 88 32 3f c8 33 33 bf 13 50 87 bf 6e 72 e1 3e
       0.69740075 -0.70000887 -1.0571312 0.44032615
000290 ed 5e 4c bd cd 93 d6 3e 71 2b 12 bf 9b 34 2a bf
       -0.049895216 0.41909638 -0.57097536 -0.6648652
0002a0 a8 d2 b8 3e 89 11 9b 3e bb 33 68 be 41 32 bc be
       0.36098218 0.30286816 -0.22675984 -0.3675709
0002b0 f7 28 8e 3e 95 be 8e 3e 8a d4 97 be 5c 36 6a 3e
       0.2776563 0.27879778 -0.29654342 0.22872299
0002c0 22 d4 cd 3d ea 63 01 3f 81 c4 92 bf bb 31 90 3e
       0.10050227 0.5054308 -1.1466218 0.2816294
0002d0 4c 9a 77 bf 8c ef 2b 40 3b de 6c bd b2 29 e7 be
       -0.96719813 2.6864958 -0.057829123 -0.45148998
0002e0 b6 21 bb bf 65 95 ef 3e 64 56 9b 3f 13 7b 46 bf
       -1.4619663 0.46793666 1.2135739 -0.77531546
0002f0 14 34 1a bf 53 4b 94 be 17 0a 59 bf f6 05 51 bc
       -0.60235715 -0.28963718 -0.8478102 -0.012757769
000300 74 dd 78 bf fe 88 6f be 36 3a 2d 3e a3 71 0b bf
       -0.9721291 -0.23392102 0.16916737 -0.5447027
000310 ed 25 02 3f d8 47 70 be ed fd 9e 3e 83 30 80 bf
       0.5083912 -0.23464906 0.31053105 -1.0014805
000320 11 4b d0 3b ec 35 be be 26 c1 8f 3d f1 68 17 bf
       0.006356605 -0.37150514 0.07019262 -0.591445
000330 5e 3d 0b bf 6b e4 9a 3f ef c3 06 be 81 84 90 be
       -0.54390514 1.2100958 -0.1316068 -0.28226092
000340 5b 91 25 3f 65 78 c5 bf 0c 0f 28 bf 59 c4 86 3f
       0.6467492 -1.5427366 -0.6564796 1.052867
000350 3d 85 1e c0 91 5a db be 33 06 83 3f 05 3e 32 3f
       -2.4768822 -0.42842534 1.0236267 0.69625884
000360 47 12 32 3e 24 dc d4 3e ce 3a a8 bf b7 e9 f0 3e
       0.17389785 0.41574204 -1.3142946 0.4705331
000370 c8 9f 8b 3f 9c 60 86 3e f2 41 a4 be b4 55 c0 3e
       1.0908136 0.26245582 -0.32081562 0.37565386
000380 08 a1 a4 3f e1 c0 33 3f 5d 74 e2 be 56 38 4c 3f
       1.2861643 0.70216185 -0.44229403 0.7977346
000390 3d af 82 3e 00 f1 b1 3f 43 81 6b 3e 5b 65 a2 3f
       0.2552432 1.3901672 0.22998528 1.2687181
0003a0 6d f9 8b bf ad 9f 86 3e 51 01 89 3e 52 3e 7e 3e
       -1.0935494 0.26293698 0.26758817 0.24828461
0003b0 79 72 40 3f c4 0b 7b be b2 37 b4 be 0a 81 ae 3e
       0.7517467 -0.24516207 -0.35198742 0.34082824
0003c0 bb 42 47 bf e3 82 73 3f 00 28 a9 3f fd 28 cf 3b
       -0.778362 0.9512159 1.3215332 0.006322025
0003d0 d0 5c 09 bf 57 ff 0e 3f d7 fe 05 bf b1 6c ce 3d
       -0.53657246 0.5585837 -0.5234198 0.10079325
0003e0 e7 56 b9 be a0 85 95 3f 23 d1 8b 3f 48 f3 12 3f
       -0.36199114 1.1681404 1.0923198 0.5740247
0003f0 bd 5b f0 bd 4f a2 98 be b6 f0 1f 3f 8b bf 11 3c
       -0.11736248 -0.29811332 0.6247667 0.008895765

weight f4 [16, 64]
000000 cd f9 0d 3d 78 c2 a0 3d 02 3b 7b bd 1a d5 a9 3c
       0.034662057 0.07849592 -0.06133557 0.020731498
000010 d8 05 0b bd 11 8b a7 3d eb 79 34 be 1f dc d6 3d
       -0.03394112 0.08180822 -0.17624633 0.104912035
000020 3b de 45 3e 51 24 3e bd 77 8f 8c be ac f4 25 bd
       0.19323055 -0.046421353 -0.27453205 -0.04051654
000030 ab a9 0d 3e db de 8d bd 37 07 c4 3e 72 2e 7b be
       0.13834254 -0.06927272 0.38286754 -0.24529436
000040 a2 4f 61 bc 52 62 07 bd 40 e3 0c 3e cf 71 89 be
       -0.013751896 -0.03305275 0.13758564 -0.26844642
000050 b5 06 1e bb 02 90 dd 3d 36 1e fd 3e d3 2d 93 be
       -0.0024112884 0.10818483 0.49437112 -0.287459
000060 c2 2d 9b 3c cb e0 15 be ea ea 03 3c 3d de a3 bd
       0.018942717 -0.14636533 0.008051613 -0.08001373
000070 ce 8d 1b 3e c6 d9 62 3e 1a 60 09 bf b2 c7 50 be
       0.15190813 0.22153386 -0.53662264 -0.20388678
000080 30 c6 39 3d 5a fb de 3e 29 d1 67 3e b7 47 97 bd
       0.045355022 0.4355114 0.22638382 -0.073867254
000090 d4 6b 41 be be f0 a0 be fc 6e 49 be b9 ba 21 bd
       -0.1888879 -0.31433672 -0.19671243 -0.039484713
0000a0 d9 10 6e bd 36 0a 81 3e 7e d6 34 3e a2 36 21 3e
       -0.058121536 0.25203103 0.17659947 0.15743497
0000b0 fe 67 aa be af fc 27 be 5e 81 44 be 9e 6b 1b be
       -0.33282465 -0.16404985 -0.19189975 -0.15177771
0000c0 ac c5 62 3e 1e 8e 39 3d c3 5f 37 3e 6a d5 27 3e
       0.22145718 0.04530155 0.17907624 0.16390005
0000d0 61 5b ee 3e f5 e0 e6 be f4 41 f5 be c8 80 37 3e
       0.46554092 -0.45093504 -0.4790188 0.1792022
0000e0 2f 37 06 3f 9f 4e 9f be c5 56 ce be c1 22 d3 bd
       0.52427953 -0.3111467 -0.40300575 -0.10309363
0000f0 9e 89 35 3e 50 e9 aa 3d ad 15 d5 3d a8 47 06 be
       0.17728278 0.08345282 0.10404525 -0.13113272
000100 97 08 aa bd 85 d2 2b 3d 3b 88 1e 3e b3 d1 fe 3d
       -0.0830242 0.041948814 0.15481655 0.12442341
000110 58 d8 a0 bd cb 63 75 be d1 43 05 3c 87 5e 55 3e
       -0.07853764 -0.23963849 0.0081338445 0.2083684
000120 89 94 67 bd ca c2 89 3d 8a 55 ee 3c fd aa 6f be
       -0.05653814 0.06726606 0.029093523 -0.2340507
000130 8b be 2f 3e 3b ab b7 bd 5f 1c 82 be 0a c7 31 bb
       0.1716253 -0.089682065 -0.2541227 -0.0027126693
000140 39 e7 b5 be 63 bc 4b be ae 33 25 bd ba ae 83 3d
       -0.3552797 -0.19896083 -0.04033249 0.06429811
000150 a1 4f f1 3b f1 92 44 3d 4b 2d aa be 65 ad 32 3e
       0.007364229 0.047991697 -0.3323768 0.17448957
000160 a3 4b 7f bd d6 26 9a 3e eb 95 e2 3c 1d 39 32 be
       -0.062327992 0.30107754 0.027659377 -0.174046
000170 df c5 10 bd 9f b7 0e be 3e aa 70 3e 0a ff 65 3e
       -0.035344955 -0.13937233 0.23502442 0.22460571
000180 e1 a7 48 bd 4f c9 2c be fe e4 2f be 92 d9 0d 3e
       -0.048988227 -0.16873668 -0.17177197 0.13852528
000190 66 d4 3d be 4e 35 2d 3d 11 50 9c be 8c 85 15 be
       -0.18538055 0.042287163 -0.30529836 -0.14601725
0001a0 ed 52 14 3e 70 8c 87 3e 46 ed ee 3d 2a dc 9b 3d
       0.14484759 0.26474333 0.1166635 0.07610352
0001b0 5e 29 62 be 24 80 bf 3d d7 d9 aa 3e c8 a7 1d 3d
       -0.22086093 0.09350613 0.33369324 0.038490087
0001c0 81 f8 58 bd 06 f7 12 be dc b0 8c be 2a 7c b6 3d
       -0.052971367 -0.14352044 -0.27478683 0.08910401
0001d0 e7 75 a3 3e ae 9a 1e 3e f6 75 da 3e 9b 87 0b be
       0.3192589 0.15488693 0.42668122 -0.13625948
0001e0 0d 01 9b 3e 62 28 03 3d 87 49 20 3e a6 12 fd bb
       0.3027424 0.032020934 0.15653048 -0.0077231703
0001f0 9b 8c cf 3c d0 05 2b bd db 6c ac be 73 b2 cf 3d
       0.0253356 -0.04175359 -0.336768 0.10141458
000200 e8 a4 cc bd 96 b5 25 be cf ec ef bc 32 db 00 3d
       -0.09992391 -0.16182551 -0.029287724 0.03145904
000210 98 64 0d bd 4d e4 35 bc a4 be bc 3e dd cc 71 3e
       -0.03451976 -0.011101794 0.36864197 0.23613305
000220 01 4e 8e bc b4 25 a9 3d bf 74 42 be f3 98 28 3e
       -0.01737118 0.082591444 -0.18989848 0.16464595
000230 3a c9 33 bd eb 13 23 3e b7 80 37 3e 88 36 96 3e
       -0.043893076 0.15925567 0.17920195 0.2933848
000240 75 3a cc be dc d3 c1 3d 28 8b a5 bd 76 25 e9 be
       -0.3988835 0.09464237 -0.080831826 -0.45536393
000250 e3 17 24 be 75 44 83 be 9c 2f 87 3e 07 0f 0f 3e
       -0.16024737 -0.25638166 0.2640351 0.13970576
000260 ec a7 04 3f 9e b3 17 bf 31 e7 80 bd 40 e5 81 3e
       0.5181873 -0.5925845 -0.06294096 0.25370216
000270 74 13 a9 3d ea 3e 24 3d 37 dd f1 bd f8 a5 66 be
       0.082556635 0.040099062 -0.118097715 -0.2252425
000280 4b 35 51 3e c0 37 e2 bc e9 e2 9a 3e 41 37 92 3e
       0.20430486 -0.027614474 0.30251244 0.2855778
000290 da 8e ff be 7a 71 3e bc 5a cd f5 3d dc 08 bb 3e
       -0.49913675 -0.011623735 0.12002058 0.36530197
0002a0 ec 51 a4 be d7 1c 68 be 2e a2 7e be 41 2e 44 be
       -0.3209375 -0.22667252 -0.24866554 -0.1915827
0002b0 ed 2b b9 be 7d ea 9c be f5 6d 78 bd fb 92 88 bc
       -0.36166325 -0.3064765 -0.06065174 -0.016671648
0002c0 2d 2c 4e 3e 45 c7 27 be ac 02 2a 3e 20 94 58 3e
       0.20134039 -0.16384609 0.16602582 0.21150255
0002d0 04 a4 29 be 8a 86 f7 bd 43 56 85 3d f6 31 bc 3d
       -0.16566473 -0.12086208 0.06510594 0.09189217
0002e0 62 a8 94 be b7 be 38 be bb cf 29 3e 20 b2 41 3e
       -0.29034716 -0.18041502 0.16583149 0.18915606
0002f0 1d bd 6e 3e 99 93 84 3e a9 d2 16 3e 34 f9 54 3d
       0.23314328 0.25893858 0.14728798 0.05199547
000300 70 6e ef 3d 19 eb d7 be 4d 60 a0 be 69 7f 2c 3e
       0.11690986 -0.42171553 -0.31323472 0.16845478
000310 17 86 b5 3e 18 b1 34 3e 06 2d d0 bd 41 25 d6 3d
       0.35453865 0.17645681 -0.101648375 0.10456324
000320 3b e7 77 be 99 f4 47 3e cc c1 7a be 21 81 d3 3a
       -0.24209301 0.195269 -0.2448799 0.0016136506
000330 f4 20 cb bd ef 2e ad 3d 3d a3 06 3e 48 6d 43 3e
       -0.09918395 0.084562175 0.13148208 0.19084656
000340 f8 d2 92 be ed 14 35 3e a4 7a 60 3e 65 15 bb be
       -0.2867658 0.17683764 0.21921784 -0.3653976
000350 6c 60 39 3e ac 43 f9 bc bd 57 3a 3b 5b c0 ab 3e
       0.18103188 -0.030427776 0.0028433644 0.33545193
000360 c6 be 92 bd 45 4e 74 be 3e 9e a9 3e 1e 45 9f 3d
       -0.071652934 -0.23857982 0.33128542 0.07776855
000370 16 ce b8 3c b0 76 94 3e d8 89 9c bd 33 6e b3 bd
       0.022559207 0.289968 -0.07643479 -0.08761253
000380 32 cc 85 bc 77 e6 7b bb 2c 50 ca bd 97 1e d4 be
       -0.01633272 -0.0038436928 -0.09878573 -0.41429588
000390 c6 24 f8 be b1 63 8f be 24 66 34 bc db 38 f4 3e
       -0.48465556 -0.28005746 -0.01101068 0.47699627
0003a0 2e 79 64 3d bd 0c 2c be 98 42 2f be 83 49 07 be
       0.05577963 -0.16801734 -0.17115247 -0.13211636
0003b0 95 d3 a7 be 95 e6 2a be 50 dd 7e bd a5 84 c6 bc
       -0.32778612 -0.16689523 -0.06222278 -0.024233172
0003c0 c6 79 17 3e 59 9c 8d 3e d3 4c 02 3e f7 0e db bd
       0.14792547 0.27658346 0.12724619 -0.10696214
0003d0 12 07 02 be 58 72 c4 3d 2c e2 59 3e a0 7d e2 3b
       -0.1269801 0.09592122 0.21277684 0.0069119483
0003e0 90 fe 95 3d b6 c3 f1 bd fe b1 04 3e 36 b8 16 3e
       0.073239446 -0.11804907 0.12958524 0.14718708
0003f0 70 f7 1c 3c d4 1a 88 3d a9 6a 39 3d 61 67 56 bd
       0.009580478 0.06645742 0.045267735 -0.052344684

weight f4 [16, 64]
000000 30 86 21 3e b8 cb 87 3c 95 b9 e1 bd 1f 86 50 bd
       0.15773845 0.016576633 -0.11021725 -0.050909158
000010 32 94 ce 3e 79 20 f8 3c 32 04 59 3e d2 c3 1f bd
       0.4034744 0.030288922 0.21193007 -0.03900511
000020 8d 72 b8 bd fd d7 f9 bd 4b 29 03 3d fd 12 0f 3e
       -0.09006224 -0.121993996 0.032021802 0.13972087
000030 54 35 4d 3e 36 d5 c0 bd d5 0c 0e 3d 6b de 2e 3d
       0.20039874 -0.09415667 0.034680206 0.042692583
000040 0d e6 b6 bd bd d6 fb bd b0 ee f1 3d 58 bf a5 3e
       -0.089305975 -0.122968175 0.11813104 0.32372546
000050 00 5b 8b be 9c 0b b7 3e be 86 3c be 38 50 06 bf
       -0.27217865 0.35751045 -0.18410775 -0.52466154
000060 4a 11 35 be 86 8c 51 be de 09 3b 3c 4e ac 05 3e
       -0.17682377 -0.20463762 0.011415927 0.1305401
000070 e7 65 75 3c ad 23 a3 3d 6b 69 74 3e 66 fe 49 be
       0.014977909 0.07965789 0.23868339 -0.19725952
000080 82 c6 9c bd a9 88 6c be 8c 5c 47 3e 2f 98 ac be
       -0.0765505 -0.23099007 0.19468898 -0.33709857
000090 71 9f f6 bd ab ed 3a 3d 70 df ed 3d ad d7 4d be
       -0.1204213 0.045636814 0.11614883 -0.20101805
0000a0 f7 3d a3 3c 9a 84 ae 3d f7 7e c3 3e 4d 48 1c be
       0.019927008 0.085213855 0.38182804 -0.15261956
0000b0 c2 7b 25 3d fd 98 cd 3d ac 02 b2 3e 39 16 d0 3e
       0.040401228 0.10038946 0.34767663 0.40641955
0000c0 71 ef 32 3f c0 7b b5 be bc 97 07 bd f3 6d 4a 3e
       0.6989661 -0.35445976 -0.03310369 0.19768505
0000d0 80 a7 37 3e ed 11 60 be 3c de 3c be 8f d1 8d bd
       0.1793499 -0.21881838 -0.1844415 -0.06924736
0000e0 af 0a 6d 3d 75 10 5a be bf 35 36 bd 7c e8 9e 3e
       0.057871517 -0.2129534 -0.04448485 0.31036747
0000f0 ca eb a4 3e 34 e9 8c be 77 be 30 be 00 52 d8 be
       0.32211143 -0.2752167 -0.17260157 -0.4225006
000100 a6 51 d3 3b 8d 73 c5 3c d5 03 0d bd f2 4f 7e bd
       0.0064489422 0.02410295 -0.034427483 -0.06208796
000110 d6 4e c2 bc ed 42 a4 bd 37 2a b8 3e 53 c6 25 3e
       -0.023719233 -0.080205776 0.35969707 0.16188936
000120 28 69 cd 3e be 8f 99 3d 2a 87 b7 3d a5 a5 2a 3e
       0.4011929 0.0749812 0.089613274 0.16664751
000130 49 aa 55 be d6 a5 f8 3d 9f 6d be 3e 2b dc 08 be
       -0.2086574 0.12141006 0.3719301 -0.13365237
000140 37 94 a6 3e 74 f2 f4 3d 75 4d bd be e4 25 54 3d
       0.32534954 0.11960307 -0.36973158 0.051793948
000150 35 a2 e2 bd e6 cd 12 be 04 58 12 3e 7f da cb 3c
       -0.11066095 -0.14336357 0.14291388 0.02488446
000160 f7 0d a9 3e cf ab f5 3c 2b 75 99 bc 52 e9 30 be
       0.33018467 0.029989151 -0.018732628 -0.17276505
000170 3c 03 44 be bf 35 d5 3d 65 4f fa 3c 08 08 43 3d
       -0.19141859 0.10410642 0.030555436 0.04761508
000180 ea c8 08 bd 40 3e 77 3e 66 68 9f 3b 31 61 36 3e
       -0.03339473 0.2414484 0.00486474 0.17810513
000190 6e 99 d9 bb 2e 8b 16 bd 9f a5 14 3e b2 a3 47 be
       -0.0066406047 -0.036753826 0.14516304 -0.19496039
0001a0 23 06 79 be 58 b2 8c 3d c7 43 63 bd db 45 a3 bd
       -0.24318747 0.06869954 -0.05548456 -0.07972308
0001b0 7a 8c 21 3e 3c 82 82 be 7a 24 23 bd 30 e8 22 3d
       0.15776244 -0.25489986 -0.03982971 0.039772213
0001c0 6c ce ec 3d eb 73 e0 3c 45 0a ba be 02 d4 5d be
       0.11562809 0.027399024 -0.3633596 -0.21662906
0001d0 3c 0e bf be 78 8b 87 be cb 7b 33 bd 3d 6d 8b 3e
       -0.37315547 -0.26473594 -0.04381923 0.2723178
0001e0 c6 7b 84 be 4c 47 26 3e 3b bc 8a be 48 bd d7 bd
       -0.25875682 0.16238135 -0.27096733 -0.105341494
0001f0 67 90 48 3e 8d a9 af be 89 9d 5d 3e b7 c8 99 bd
       0.19586335 -0.34309044 0.21642126 -0.075089864
000200 50 de 42 be 1c ff bf 3d 19 7c 19 bd ca 45 ba bd
       -0.19030118 0.0937483 -0.037471864 -0.090953425
000210 ec 05 2b 3e 22 94 96 3e 3f 9f a0 be ff c2 f8 be
       0.16701478 0.2940989 -0.31371495 -0.4858627
000220 9f 58 07 3e 50 7e d3 3e 61 b9 83 be b7 6c 91 3c
       0.132174 0.41307306 -0.2572737 0.017752035
000230 a2 0a b7 3e 9c 4d f0 bd f0 00 bc be 40 d1 a7 3d
       0.357503 -0.11733553 -0.36719465 0.08194208
000240 25 b9 a9 3e 81 fa 81 3e 16 2e 58 bd 84 ba 26 3d
       0.33149067 0.25386432 -0.052778326 0.04070522
000250 d0 fe 47 be 96 74 88 bd ae 9f aa be ca 40 71 3e
       -0.19530797 -0.06662862 -0.3332495 0.23559871
000260 00 5c 13 be 2d 08 b1 3d ba bd 4b bd f8 e1 2f be
       -0.14390564 0.086441375 -0.049741484 -0.17176044
000270 5f 31 ab 3e 72 ad 8e be 51 67 c3 3d be d8 78 be
       0.33436105 -0.27866703 0.095411904 -0.2430143
000280 18 ff 6c be 36 b6 3f be 3f ef e7 be 7b 1a c8 3d
       -0.23144186 -0.18721852 -0.45299718 0.09770676
000290 70 23 3b 3e 58 a8 87 3d 83 71 c1 3e ce 98 0a 3e
       0.18275237 0.06623906 0.37781915 0.13534853
0002a0 58 c2 a8 3d dd b3 71 be da 85 57 be 46 6f 40 bd
       0.08240193 -0.23603769 -0.21047154 -0.04698112
0002b0 66 05 0f be 2d 90 c2 bd 40 91 9b 3d 58 1a 63 3e
       -0.13966903 -0.095001556 0.075960636 0.22178018
0002c0 b7 31 19 be c7 22 19 3b 7c bf 3a be 49 da 92 be
       -0.14960371 0.0023366676 -0.18237108 -0.28682163
0002d0 8b a8 4f 3d 76 c5 0c 3e a2 2e af 3d ca b8 33 bd
       0.050697844 0.137472 0.085538164 -0.0438774
0002e0 56 c3 ae 3d 8e e2 2b be 0f d2 03 3f ad df 13 3c
       0.08533351 -0.16785643 0.514924 0.009025496
0002f0 82 8a a2 3d 7d a1 56 3e 3e 91 8f be 4d bf d2 bd
       0.079365745 0.2096004 -0.28040498 -0.10290394
000300 6e 1a f6 bd 43 f8 0c 3f 27 f9 6c 3c b5 86 20 bc
       -0.1201676 0.5506632 0.014463699 -0.009797742
000310 d4 9f 75 bc 0f 08 18 bc 80 fe f1 3d 5f 62 0e bd
       -0.014991719 -0.009279265 0.1181612 -0.034761783
000320 68 e5 63 3e 6c 01 5b 3d 94 75 98 be 6f de 52 3e
       0.2225548 0.053468153 -0.29777205 0.20592664
000330 06 c7 2b 3e ed 5d cf bd 4a 59 ac bd ab d1 a0 be
       0.1677514 -0.10125337 -0.08415468 -0.31409964
000340 c9 7e b2 bc c9 18 a0 be 60 fa 79 be 00 7f 9e 3c
       -0.021788971 -0.3126891 -0.24411917 0.019347668
000350 81 fb be 3d 86 22 bf be f2 7a 18 bd b5 df 2b be
       0.09325314 -0.37331027 -0.037226625 -0.16784556
000360 23 20 60 3e e5 bb a5 be 2c 1f 26 3c f0 f9 1b 3e
       0.21887259 -0.32369915 0.010139268 0.15232062
000370 a1 7f de 3d 73 86 d5 be c2 5d 04 3d 01 fb c2 3e
       0.10864187 -0.4170414 0.032315977 0.38082126
000380 ad 8a b9 3d 7f 51 d8 be 45 0a 83 bd 52 70 cd 3e
       0.090596534 -0.42249677 -0.06398443 0.40124756
000390 08 8b 9c bd 9a 9c 15 3d cc 6a fb 3c be 56 5e bd
       -0.076437056 0.0365263 0.030690573 -0.054281943
0003a0 dc 35 4c 3e 0e 21 b9 be 53 fb 0f be 95 d3 95 bc
       0.1994242 -0.3615803 -0.14060716 -0.018289367
0003b0 6e 40 9a bd f8 e4 40 3c b0 43 90 3e 2d e9 7b 3e
       -0.0753182 0.01177334 0.2817664 0.24600668
0003c0 84 c8 e9 bd 78 8b 6c 3d a9 a5 f2 bd 50 2e 53 bd
       -0.114151984 0.057750195 -0.118480034 -0.05155784
0003d0 a7 21 fb 3d 4a 70 26 be 4e a8 8e 3c 21 c8 8c 3c
       0.12262278 -0.16253772 0.017414238 0.017185273
0003e0 5d 19 e2 bd 65 39 17 be 45 33 72 3e f6 df 95 3e
       -0.11039994 -0.14767988 0.2365237 0.2927243
0003f0 0e 7b 36 be 98 82 25 bd 54 ad f4 be ed 36 09 3e
       -0.17820379 -0.040407747 -0.4778849 0.13399859

weight f4 [16, 64]
000000 fe 13 ec 3e 4e 33 8b 3d 3b 22 9f 3e f6 84 90 3c
       0.46109003 0.06796895 0.31080803 0.017641526
000010 3e b1 02 be 57 26 82 be b9 39 63 3d 25 02 57 3e
       -0.12762925 -0.25419876 0.05547497 0.20996912
000020 ee 70 aa bc 11 d4 a5 3d b2 88 8d be 40 d3 3c 3d
       -0.020805802 0.08097089 -0.27643353 0.0460999
000030 73 bb d3 3e 4b 2a 6b bd 78 40 08 3e 78 6c d2 3d
       0.4135395 -0.05741338 0.13305843 0.10274595
000040 fb 5e 0c 3c 22 1c ac 3d 77 d9 76 be 5a c8 1b 3e
       0.008567567 0.084038034 -0.24106394 0.15213147
000050 eb 8c a1 bd 0a ba b8 be 6b 0e 83 bc 6b 4c 9f bd
       -0.07888206 -0.36079437 -0.015998086 -0.077782474
000060 f6 86 0e 3d a4 51 3a 3d ae ad 19 be cd 69 c9 be
       0.034796678 0.045488015 -0.1500766 -0.39338532
000070 d0 26 d9 3d ce 5f 06 3e 62 2f 08 3e 4e be ab bd
       0.10603106 0.13122484 0.13299325 -0.08385907
000080 be 3a 4a bd af 6b 88 bd 89 24 34 3d 21 d2 4a be
       -0.049372427 -0.06661164 0.043980155 -0.1980672
000090 3f a9 56 be 4c 09 31 be a2 1b 6c be e0 dc 17 3e
       -0.20963 -0.17288703 -0.23057416 0.14830351
0000a0 09 55 18 be 7b bb 57 bd 7c d5 6c 3d 29 8a 17 3c
       -0.14876188 -0.05266903 0.057820782 0.009249249
0000b0 82 81 b0 3d ba 3c 8d 3d ef af 58 3d 3c aa 0f 3f
       0.08618452 0.06896348 0.05290216 0.5611913
0000c0 c9 c5 30 3e 56 92 d0 3d ed 1e 06 3e dd b5 15 3b
       0.17262949 0.10184161 0.13097735 0.0022843995
0000d0 5a 66 5e be f0 1f 96 3d e0 f2 8f be a3 19 1b 3e
       -0.21718732 0.0733031 -0.28114986 0.15146498
0000e0 82 11 ee bd b8 fb f2 3c 4c ec 5a 3e 5a 88 8b 3c
       -0.11624433 0.029661044 0.21379203 0.01703279
0000f0 90 b7 27 be b8 6e 73 be fb fe b2 bd 90 a0 96 3e
       -0.16378617 -0.23772705 -0.0874004 0.29419374
000100 9a 17 c7 3d a6 1a a9 bd 24 00 2e be 34 9f 63 be
       0.097212985 -0.08257036 -0.16992241 -0.222287
000110 c5 f0 82 be a8 23 ba bd a5 9b a9 bd d5 cc 79 3e
       -0.25574318 -0.09088832 -0.0828164 0.24394543
000120 03 95 ee 3c cd 26 05 3e bf a2 18 bd 4c a6 0a 3e
       0.029123789 0.13003083 -0.03726458 0.1354
000130 85 40 80 3e 60 99 1d be 55 8a 0c 3e e6 a7 93 be
       0.25049224 -0.15390539 0.13724644 -0.28839034
000140 8b d7 10 3c fe a1 bb 3d b6 d1 63 3e a1 ec 44 3e
       0.008840452 0.09161757 0.22247967 0.19230892
000150 ee f7 c6 be 6a 29 54 ba 45 42 ea 3d fa 65 00 be
       -0.3886103 -0.00080933294 0.11438421 -0.12538901
000160 49 45 a5 bd e7 d3 2a 3e 54 4c 13 3c 01 1b 5f bd
       -0.08069856 0.16682397 0.008990366 -0.054469112
000170 ea 1d dd 3d 7c 3d 69 3c 8a ee 40 3e 70 e6 8d be
       0.10796721 0.01423585 0.18840995 -0.27714872
000180 57 b3 15 bd 5c fd 1d 3e 69 1b 49 bd 10 5b b3 3c
       -0.036547985 0.1542868 -0.049098406 0.021894008
000190 af 63 fa bd 02 14 c0 bd 10 d0 12 3d 09 4d 2f be
       -0.122260444 -0.09378816 0.035842955 -0.1711923
0001a0 f0 34 0d be f4 20 0c 3e c2 87 23 3e fe 27 6e 3e
       -0.13789725 0.13684446 0.15969756 0.23257443
0001b0 f7 a1 c7 3c 11 f6 c8 3e ba 02 a1 3e 58 a4 cd 3c
       0.024369223 0.39250234 0.31447393 0.02510278
0001c0 cc fa 8d bb 08 37 0e 3e 5b 45 ae 3e b7 a0 a3 3e
       -0.004332876 0.1388818 0.3403729 0.31958553
0001d0 2e 09 90 bc dd a0 59 be 88 87 72 3d 8f 4b 98 be
       -0.017582502 -0.2125277 0.059211284 -0.29745147
0001e0 36 b4 b6 3e d6 2b 14 be 01 de a2 3c 73 13 83 3d
       0.35684365 -0.14469847 0.01988125 0.06400194
0001f0 3e aa 0b 3e ce e8 f4 bd 45 24 4c be 30 0c a6 bd
       0.13639161 -0.119584665 -0.1993571 -0.08107793
000200 35 35 46 be 4b ae c0 bd fd db 03 3e 2a 12 9c bd
       -0.19356234 -0.09408244 0.12876888 -0.07620652
000210 56 8c d7 bd 88 f4 2c 3d 9e a2 f6 3d 16 a0 ed 3d
       -0.10524814 0.04222539 0.120427355 0.116027996
000220 0d 53 41 be 20 27 84 3d c5 2f 2a be b2 32 98 3d
       -0.18879338 0.06452775 -0.16619785 0.07431544
000230 8b ba e1 bd fd 37 8f be 86 5b cf 3e 63 7b 99 bd
       -0.110219084 -0.27972403 0.40499514 -0.07494237
000240 7e ba 45 3e df 39 9c 3e cb a9 88 3d 03 c1 f2 bd
       0.19309422 0.30512902 0.066730104 -0.1185322
000250 89 c8 a4 3d f4 f6 96 bc 31 b5 3e 3e 78 3d c5 3c
       0.080460615 -0.018428303 0.18623807 0.024077162
000260 27 e5 9a 3e f7 d5 ec bc 5c 50 81 3e 3e d2 e6 3d
       0.30252954 -0.02891062 0.25256622 0.11270569
000270 1b 0a 15 3e 8a fb 08 be 4b c7 38 3d ca 3a 10 bb
       0.14554636 -0.13377205 0.045111936 -0.0022007697
000280 be ee dc bd 7c d9 0e bf 32 84 a4 3d 53 3f cf be
       -0.10787724 -0.55800605 0.08033027 -0.40478
000290 55 ec 91 be 03 61 31 3e 71 dd 02 be ff 60 c2 3c
       -0.2850062 0.17322163 -0.12779786 0.023727892
0002a0 63 32 c8 be a9 47 43 be fb d0 8e bb cc 87 9e be
       -0.39100942 -0.19070305 -0.0043584085 -0.3096298
0002b0 c8 41 8f 3e d6 a0 71 bd 1f 2e 53 3e ee e0 82 3e
       0.27979875 -0.058991276 0.20623063 0.25562233
0002c0 c8 3b af bd e8 ee 93 bd 92 b5 b6 3e fa 6a ea 3c
       -0.08556324 -0.07223302 0.35685402 0.028615464
0002d0 7c f7 02 3e 06 1f 09 bd 2f c3 04 be 8c 09 34 3e
       0.1278972 -0.033476852 -0.12965082 0.17581767
0002e0 7a 9f 41 be 4a 5a d9 bd f8 a1 ae bd 65 f9 89 3e
       -0.18908492 -0.106129244 -0.08526987 0.26948085
0002f0 f9 7b 18 be 25 db 11 3d 04 c9 e7 bd 93 e2 8d 3d
       -0.14891042 0.035609383 -0.113176376 0.06927981
000300 40 6c 5b be f5 90 fc 3d c6 64 09 bd 23 7e d5 3e
       -0.21428013 0.12332336 -0.03354337 0.41697797
000310 7a e0 82 3e 42 1f ae 3c 79 80 9f be 35 f6 8c 3d
       0.25561887 0.02125514 -0.31152704 0.06882898
000320 37 f9 a3 bd 7b 9b ea bd 55 f3 b7 3d 94 1a c6 bd
       -0.08006518 -0.11455437 0.08981959 -0.09673038
000330 68 91 cd be 32 ae 72 bd c8 c4 d3 3d ad 01 71 bd
       -0.4015 -0.059248157 0.103402674 -0.05883949
000340 9f d4 cd be fb f2 d0 be 50 1a a8 be ea 5f 12 bd
       -0.4020128 -0.4081038 -0.32832575 -0.035736002
000350 3e b7 5c 3b c1 b6 3a bc e1 f0 a0 be 74 ee 51 3e
       0.0033678557 -0.011396111 -0.31433776 0.20501119
000360 c3 b3 8d 3d 34 9f 96 3c b4 56 7a 3e cb 57 25 3d
       0.069190525 0.01838646 0.24447137 0.04036693
000370 be 63 e5 3d 0c 61 3f 3e e2 f9 b2 3e e1 17 e5 3d
       0.11200665 0.18689364 0.3495627 0.11186195
000380 c1 38 5b 3e 0a f4 98 3a 00 3e 6a 3e 0e dd a1 be
       0.21408369 0.0011669409 0.22875214 -0.31613964
000390 95 2c 10 be b6 d0 f4 bd ca 51 21 bd db 2d 63 bd
       -0.14079507 -0.11953871 -0.03938464 -0.055463653
0003a0 b3 99 61 be dd c6 ea 3d f7 70 55 3e df 46 f2 bc
       -0.22031288 0.114637114 0.20843874 -0.02957481
0003b0 b1 36 59 be a7 19 b5 bd 20 92 a5 3e 1b be f4 3e
       -0.2121227 -0.088427834 0.32338047 0.4780129
0003c0 26 83 83 3c 12 f6 cf bb ca b6 0a bc 59 e8 53 bb
       0.016053747 -0.0063464725 -0.008466432 -0.0032334535
0003d0 52 2b 52 3e 1c e3 d3 bd d9 bd 51 be 9a 9e 9a be
       0.20524338 -0.10346052 -0.20482577 -0.30199128
0003e0 57 e6 b6 be 02 fb 63 3e 4b 9e 33 3d 6e b7 0f 3e
       -0.3572261 0.2226372 0.04385213 0.14034817
0003f0 e4 7b 33 3d 07 6a a8 39 cd 2e 3b 3e 36 f4 0f bd
       0.043819323 0.00032122454 0.18279572 -0.035145007

weight f4 [16, 64]
000000 2e 06 0f bf 5f cd a9 bd d7 3a 16 3e 37 6a 4b be
       -0.55868804 -0.082911246 0.14670883 -0.19864736
000010 b8 0e d6 bc ea 28 2c 3f 0d 3a 4a be 70 68 19 3e
       -0.026130065 0.6724993 -0.19748707 0.14981246
000020 15 ae 2f 3e 2e 0e 56 bd 47 d6 e8 bc cb 4d 5d be
       0.17156251 -0.052259617 -0.028422488 -0.21611707
000030 e8 f1 11 bf ae 30 0e 3f 7e 0f 05 bd 15 3c 23 3e
       -0.57009745 0.5554303 -0.032485478 0.15940888
000040 de 24 0e bf 15 c7 6f bd 22 f9 9a 3e 11 20 7e 3e
       -0.55525005 -0.05853947 0.30268198 0.2481692
000050 6b be b7 3e bb bc f6 bd e1 68 ca bd 2b e2 63 bf
       0.35887465 -0.12047716 -0.09883285 -0.8901698
000060 a2 15 ce bd 3a ae 6f be 0d 4a b2 3d 04 a3 ee 3e
       -0.1006272 -0.23406306 0.0870553 0.46608746
000070 0c d6 88 3e 0d 8d d6 3d bc 5c b2 3d 35 af 0c bd
       0.26725805 0.10476122 0.08709094 -0.034346778
000080 31 1f cf 3d 33 e5 93 be 8e ff df 3e d6 ef 85 be
       0.10113371 -0.28885803 0.4374966 -0.26159543
000090 67 91 83 3e da 4b a9 bd 1f 88 00 3e 43 5e 16 be
       0.2569687 -0.08266421 0.12551926 -0.14684395
0000a0 99 04 a7 be 82 9c 39 3f 57 24 f9 3d ad 5f ff 3d
       -0.32620695 0.72504437 0.121651344 0.124694206
0000b0 69 3a 5a 3f 8c 43 5e 3e ba b0 e4 3d 96 cb e2 3e
       0.85245377 0.21705455 0.111665204 0.4429595
0000c0 61 35 03 3e a6 42 c0 3e 2c 6e 2d be 13 f8 0d bd
       0.12813331 0.3755085 -0.16936558 -0.03466041
0000d0 52 2f 4b 3e b5 b9 a5 bd b8 c5 1b bf 9f 7b eb bd
       0.1984227 -0.080920614 -0.6084857 -0.11498188
0000e0 77 86 98 3e 37 59 22 bf 08 b9 04 be 4d 19 c3 bd
       0.2979009 -0.6341738 -0.12961209 -0.0952631
0000f0 b8 c7 39 3d e0 68 7a be 2f e1 18 3d 8a 02 bf be
       0.045356482 -0.24454069 0.037324127 -0.37306625
000100 54 d3 3d 3e 91 f2 d3 bd e5 ff 99 ba ba b8 52 be
       0.18537647 -0.10349 -0.0011749236 -0.2057828
000110 94 71 e8 be de 29 62 bd 19 41 1b bf d0 4a c4 3e
       -0.45399153 -0.05521571 -0.60646206 0.38338327
000120 8c 10 10 3c 49 d8 5f be 9d 22 8f be d0 cf ef 3e
       0.008793008 -0.2185985 -0.27956095 0.46838236
000130 ea c4 03 3e d5 99 77 be 5b cf 3d be c6 de 16 3f
       0.12868086 -0.24179776 -0.18536131 0.58933675
000140 20 72 97 3d 33 e2 c2 3e 46 1e 3d bc 7f ee 47 be
       0.073948145 0.380632 -0.011542862 -0.19524573
000150 b4 3d 92 3e 64 ef 41 3f 53 09 91 3e 00 74 75 be
       0.285627 0.75755906 0.28327426 -0.23970032
000160 6f 89 25 3e 2a 34 50 bf 85 e6 31 3e b8 9e ee be
       0.16165708 -0.81329596 0.17373092 -0.46605468
000170 57 f8 2a 3e 11 cf c0 3e 6d 39 c1 bb e6 11 83 be
       0.16696297 0.3765798 -0.0058967383 -0.25599593
000180 3b 5c 25 3e 03 96 b0 bd 26 a8 06 3f b7 48 10 be
       0.16148464 -0.086223625 0.52600324 -0.14090239
000190 4c d0 3c be 4e 19 37 be 27 87 91 3c cc 6a 89 3e
       -0.18438834 -0.17880747 0.017764641 0.26839292
0001a0 4d 25 42 be 71 eb e7 3e aa 02 83 3e a9 2b de be
       -0.18959542 0.45296815 0.2558797 -0.43392685
0001b0 5f d1 80 be 6a 43 8b 3d 07 18 02 be 6a 4b cc 3d
       -0.25159737 0.067999676 -0.12704478 0.099753216
0001c0 2a 62 fe 3e f7 30 c5 be ff 48 5e bd cb 41 2b bd
       0.49684268 -0.3851392 -0.054268833 -0.041810792
0001d0 9c 89 fb bd 20 a1 db be 1e c8 82 bd 35 46 df be
       -0.12282106 -0.42896366 -0.063858256 -0.4360825
0001e0 aa 65 87 3e 87 83 2c be 06 9f 12 bf 5b 32 d0 bd
       0.2644475 -0.16847049 -0.572739 -0.101658545
0001f0 ed 5a 87 3e fe 46 17 3f 8a e5 0e 3f 7a c7 c8 3d
       0.26436558 0.590927 0.55819 0.09803672
000200 17 3f 07 be af ef 11 be 2c 11 a5 bd f3 af 4d bc
       -0.1320766 -0.14251588 -0.08059916 -0.012554157
000210 09 10 9a be a5 a0 26 bf a6 d9 08 bd 63 58 2a be
       -0.3009036 -0.65088874 -0.03341069 -0.1663528
000220 19 67 57 be 57 ba 34 3e 28 01 24 3e 19 ce be 3d
       -0.21035422 0.17649208 0.16016066 0.09316654
000230 4c b8 18 3d ff 34 68 be c2 cb 10 be 2e 3a 0b 3f
       0.037285134 -0.22676466 -0.14140227 0.5438565
000240 d2 b3 57 be 50 37 23 3e 63 99 af 3d 23 c7 6b 3e
       -0.2106469 0.15939069 0.08574178 0.23025183
000250 67 3f 0c 3e b8 96 22 3e ba 4c 51 be 3a 60 fc 3e
       0.13696061 0.15877807 -0.20439425 0.49292165
000260 0d 08 8b be 0e 4e f4 3e 65 08 47 be c6 4e 41 bc
       -0.2715458 0.477158 -0.19436796 -0.011798566
000270 85 93 51 be 6f 70 38 3e d8 5a c0 3e 3e c9 d8 bd
       -0.2046643 0.1801164 0.37569308 -0.10585259
000280 63 c1 cd be 39 47 f1 bd c5 0c cb be 5b cc 06 bf
       -0.40186605 -0.11781163 -0.3965818 -0.5265557
000290 77 e9 9a be 40 69 75 be 8f d1 c6 3e 83 d5 5a be
       -0.30256245 -0.23965931 0.38831756 -0.21370511
0002a0 86 50 c3 3e be 2d 50 be e5 45 41 3e 63 05 83 3e
       0.38147372 -0.2032995 0.18874319 0.25590047
0002b0 38 f0 88 3e 61 6d ed 3e 98 a5 26 39 8e 6e 48 3d
       0.26745772 0.46372512 0.00015892682 0.04893356
0002c0 43 15 b3 bd 65 37 bf be 2b cd ba bd e8 d9 9b 3e
       -0.0874429 -0.3734695 -0.09121164 0.30439687
0002d0 2c 0c ae 3e 5a 83 6f be 2a f7 23 3f 0f 7f 14 3e
       0.3399366 -0.2338995 0.6404902 0.14501594
0002e0 40 08 a0 3e 86 04 a3 3d bc 58 c0 bc f0 6b 6c bd
       0.31256294 0.07959847 -0.023479812 -0.057720125
0002f0 28 28 16 be d1 c8 86 be 9f d0 63 bd da 91 0b be
       -0.14663756 -0.26325086 -0.05561888 -0.13629857
000300 51 87 85 3e 9b 53 d0 be 69 62 df be 95 f9 d4 bd
       0.260798 -0.40688786 -0.43629768 -0.103991665
000310 49 2e 82 3e 30 c6 b9 3e 23 29 d3 3b 15 df d5 bd
       0.25425938 0.36284018 0.006444113 -0.1044294
000320 1e 7e 4c be 6d d8 1e 3f 7f b5 a0 be 40 78 0e 3e
       -0.19969985 0.6204899 -0.3138847 0.13913059
000330 12 17 b3 bd 8a 1a 08 be ef ca a2 be 29 3e 02 3f
       -0.08744635 -0.13291374 -0.3179545 0.508761
000340 3b 35 8e 3e f6 34 35 3e 4a 7b 4b 3e ed 1c c5 bc
       0.27774987 0.17695984 0.1987125 -0.024061644
000350 67 4c 8c be ed 33 2b be db 09 ea be 30 e3 c5 3e
       -0.2740204 -0.16719027 -0.45710644 0.38649893
000360 5c fa be bd ab 44 a0 3c cd 90 f3 3d d8 f7 bf 3e
       -0.09325096 0.019563993 0.11892853 0.37493777
000370 af fd 92 3d 1d 41 16 3e 8b 92 ad be 0a 74 2c be
       0.071772926 0.14673276 -0.33900866 -0.1684114
000380 7f 65 97 be 89 cf 83 ba ad 9f ce be 21 48 61 3c
       -0.29569623 -0.0010056357 -0.40356198 0.013750107
000390 6c 0b b6 bd 8f eb 3b 3e 7a ac b3 3e 25 07 55 3e
       -0.08888897 0.18351577 0.35092527 0.20803507
0003a0 90 b7 8d bd e6 57 01 bf 01 40 7d 3d c5 9c f7 be
       -0.069197774 -0.5052475 0.061828617 -0.48361793
0003b0 5a b7 9c bb 22 ab e2 bd fb 4c 2d bd 8c 0d a5 be
       -0.0047825994 -0.11067797 -0.042309742 -0.32236898
0003c0 8c cd d4 bb e9 b3 28 3d 6f 70 cd 3e bc f8 70 be
       -0.0064942297 0.0411872 0.40124843 -0.23532385
0003d0 f2 64 0b bf eb 20 0f 3e 5c e1 6b 3e 62 81 2b bd
       -0.54450905 0.13977401 0.23035187 -0.041871436
0003e0 3f ee 28 be 08 28 26 be 31 60 30 3f e9 e2 12 3f
       -0.16497134 -0.16226208 0.68896776 0.5737749
0003f0 a0 ee 54 be e8 02 6e 3d e6 6b 11 bd 01 d3 90 bd
       -0.20794153 0.05810824 -0.03550329 -0.07071496

weight f4 [16, 64]
000000 ec 2a b9 bd 43 a9 c8 3e d4 4b 9e bb 14 d4 23 3e
       -0.0904139 0.39191636 -0.0048308168 0.1599887
000010 fc 00 00 3e 99 7e 85 3e 6d 7e d7 3e 75 18 b5 3e
       0.12500376 0.2607315 0.42088643 0.35370222
000020 90 45 64 3e e5 1b 7e 3e a0 f9 4a bf fa 3c 0a 3e
       0.22292161 0.24815328 -0.7928715 0.13499823
000030 37 62 7b 3e 85 21 7c bd 42 e7 e0 3e dc 1f d0 be
       0.24549185 -0.061555404 0.43926436 -0.40649307
000040 7b b0 37 3f 22 0b cf be 28 88 0b bf ed 07 39 3d
       0.7175366 -0.4043818 -0.5450463 0.045173574
000050 4b 18 99 bd bc 4c 71 be 46 85 ca 3e 40 a1 bf bd
       -0.07475337 -0.23564428 0.39554805 -0.09356928
000060 14 61 3b 3f ef c3 55 be aa 14 6f be e2 36 d1 be
       0.73195004 -0.20875524 -0.23347726 -0.40862185
000070 e8 fd 9e be b1 5d 07 bf 59 42 e8 be 8a 61 87 be
       -0.3105309 -0.52877337 -0.4536312 -0.26441604
000080 f3 ec 29 bf e8 2a 05 3f 61 45 d2 3c cd 54 76 bd
       -0.6637718 0.52018595 0.025667848 -0.060139466
000090 f6 d2 a4 3e af b3 14 3e 25 77 dd 3b f1 40 83 be
       0.321922 0.14521669 0.006758588 -0.25635484
0000a0 78 70 84 3e 84 30 d4 bc 74 9d 19 bf 5a 5e 29 be
       0.25867057 -0.02590204 -0.6000588 -0.16539899
0000b0 32 8f 8c be 4f 97 67 3e 27 85 fb 3c a4 41 79 be
       -0.27453 0.22616313 0.03070314 -0.24341446
0000c0 f6 7a d0 3d 8c d9 1d be 49 ca 1c 3f ba d6 4f 3e
       0.10179703 -0.15415019 0.6124616 0.20296755
0000d0 0a 62 d5 bd 13 5f 3a 3e 4b 62 d6 3d be 63 b3 3e
       -0.1041909 0.1820033 0.10467967 0.35037035
0000e0 8d b0 88 be ed 37 b9 3e 22 69 5a bd fd 0f 87 3d
       -0.26697198 0.3617548 -0.05332292 0.065948464
0000f0 96 ef 85 3d 38 89 f6 3c 43 1e 0f 3e 04 f3 c8 be
       0.06539838 0.030094728 0.13976388 -0.39247906
000100 5e c9 c3 bc 0a aa 10 3f 77 d0 03 bf dc 56 86 3e
       -0.02389973 0.5650946 -0.5148997 0.26238143
000110 4c ed 8a bd 6e 91 2b 3f db f5 3a 3e 3a c9 34 3f
       -0.06783542 0.67018783 0.18257849 0.7061955
000120 6f fd 42 3f 3a cf 12 3e f9 b7 cb be ba f9 30 3e
       0.7616796 0.14336863 -0.39788797 0.17282763
000130 7a a0 67 3e 3b a6 b7 be c9 49 78 be dd bd e6 bd
       0.2261981 -0.3586901 -0.24246897 -0.11266682
000140 82 0c cf bc 58 8f 82 3e 95 d3 d7 bc 2f b0 97 be
       -0.025274519 0.25499988 -0.026346007 -0.29626605
000150 ef 25 91 3e 43 cd bb bb 00 54 81 be fc 33 67 bf
       0.28349254 -0.005731256 -0.252594 -0.90313697
000160 fe 15 7c 3e dd e4 fe be af 65 d1 3e eb 0d 89 be
       0.24617764 -0.49783984 0.4089789 -0.2676843
000170 d5 bc 82 be 96 0b 06 3e c1 bc 9b bd 09 68 2e 3e
       -0.25534692 0.13090357 -0.07604361 0.17031874
000180 46 07 27 3c a5 ca 6f bd 2f 97 f0 3e 36 7e 3a 3e
       0.010194605 -0.058542866 0.46990344 0.18212208
000190 ba fd 91 be a2 22 94 be 66 e5 3c 3e 6d 99 a4 be
       -0.2851389 -0.28932673 0.18446884 -0.32148305
0001a0 ad 5b 00 3d 0f 97 d2 3e d3 e6 95 be 7e 5c 16 3c
       0.03133743 0.41130874 -0.29277667 0.009177325
0001b0 a1 07 a6 be b6 66 18 3e 0c cc 17 be 80 f8 2d be
       -0.32427695 0.14882931 -0.14823931 -0.16989326
0001c0 9d 40 98 3e 97 47 2e 3d bb f8 3b bd 08 17 96 bd
       0.29736796 0.042548742 -0.045891505 -0.073286116
0001d0 df f9 a6 3e 50 a4 24 bf 9f 2b e4 be fb 1d 8c bd
       0.32612512 -0.6431322 -0.4456453 -0.06841656
0001e0 26 c3 ab 3e 35 05 52 bf b6 3e 95 3c 4e 42 75 bd
       0.33547324 -0.82039195 0.01821838 -0.059877686
0001f0 b1 55 b0 3e b7 df b2 3e 24 6e 21 bd 26 42 ed be
       0.34440377 0.34936306 -0.03941168 -0.4633953
000200 22 c5 a4 be 74 ff 42 3e ea b3 17 3f 1a 25 a5 be
       -0.3218165 0.1904276 0.592589 -0.3225487
000210 eb 9e e1 be f4 12 37 be bf 36 77 be 41 bf 29 be
       -0.44066557 -0.17878324 -0.24141978 -0.16576864
000220 7d bd ba 3e 7a d2 10 be 3b d5 45 3d e0 9a 38 be
       0.36472693 -0.1414279 0.048299056 -0.1802783
000230 5f c9 77 be c3 cf b0 bc cf 4e 27 3d ab 1d c4 bd
       -0.2419791 -0.021583444 0.040846642 -0.09575971
000240 d1 9c d1 3d af cf 20 3d cc 56 a2 be ab 29 28 3e
       0.102349885 0.039260563 -0.31706846 0.16422145
000250 30 6a 0b 3e 6d 17 39 be b4 14 e7 3d 73 f9 82 be
       0.13614726 -0.18075342 0.11283246 -0.2558094
000260 f5 12 32 be 68 4d ac 3d c1 8e 50 3e 8c 60 6d bd
       -0.17390044 0.084132016 0.20366956 -0.057953402
000270 f2 db b7 3e aa cd 23 3e 26 72 80 3e f0 ae 82 be
       0.35909992 0.15996423 0.25087088 -0.25524092
000280 43 42 c8 3e 7a 64 10 bf 4c 67 25 3f 11 9e 9a be
       0.39113054 -0.56403315 0.64610744 -0.3019872
000290 dd 90 0c 3e f1 23 bb 3d dc d9 8c 3e 6d 68 2d be
       0.13727136 0.09137715 0.27509964 -0.16934367
0002a0 15 b6 36 be 14 8e 28 3e 88 3e 96 be c2 5a 6d 3e
       -0.17842896 0.16460449 -0.29344583 0.23179153
0002b0 b0 fc 15 3f 50 b9 4b 3e 90 64 1f bd 78 36 d9 3d
       0.58588696 0.1989491 -0.038914263 0.10606092
0002c0 8c be b0 3d f6 cc 86 3d 09 77 6b be a8 b6 ab be
       0.08630094 0.06582062 -0.22994627 -0.33537793
0002d0 b3 6c 23 3e e7 ca bc be 23 55 06 be 13 35 54 3e
       0.15959434 -0.36873552 -0.13118415 0.20723371
0002e0 21 0a a3 3e 46 77 65 3e f8 3e 96 bb 26 82 bf be
       0.31843665 0.2240878 -0.004585143 -0.37403983
0002f0 8b 76 ce 3e 5f 4a d9 be 32 82 8c 3e 32 32 e8 3b
       0.40324816 -0.42439553 0.2744308 0.007086062
000300 03 3d e7 be aa ce 97 3d f2 b5 aa 3c ea 75 d6 be
       -0.45163736 0.07412465 0.020838711 -0.41886836
000310 f2 e4 56 3e 46 1b bb 3e 81 b4 9e bd 59 77 2f bf
       0.20985773 0.36544245 -0.07749272 -0.68541485
000320 b7 27 cb 3e 21 a6 ec bb fc fe 2a 3e 9c d6 bb 3d
       0.39678738 -0.0072219525 0.16698831 0.09171793
000330 17 52 cb 3e 3d a6 72 bd 5b 2c 1e bf 4c d1 07 3c
       0.39711067 -0.05924057 -0.6178643 0.008289646
000340 e8 22 84 be f3 c6 1a bc 33 aa 52 3b 67 7e 92 bd
       -0.2580788 -0.009446847 0.0032144904 -0.071530156
000350 79 d3 05 be cd 98 65 be 9c af 9f be 9e db 9c 3e
       -0.13068952 -0.2242157 -0.31188667 0.30636305
000360 26 21 ca be 38 96 aa bd 68 24 57 3c 9b cc d5 3e
       -0.39478415 -0.08329433 0.0131312385 0.41757664
000370 97 57 08 bd c7 65 4c be e5 f5 86 3e b9 35 64 be
       -0.033286657 -0.199607 0.26359478 -0.22286119
000380 d9 87 00 3f 7d c7 e7 be e1 77 a5 bd 22 5e 02 bc
       0.5020729 -0.45269385 -0.08079506 -0.007957013
000390 5e 9f ad 3e bc cf 02 3f 2b 20 15 3e 9b 7c 30 3e
       0.3391065 0.5109823 0.14563052 0.17235033
0003a0 57 7b 2e 3e c3 76 25 be d0 b0 89 3d 4c f7 b7 bd
       0.17039238 -0.16158585 0.067231774 -0.08982715
0003b0 e6 f9 56 bc f9 eb b4 3d a2 a4 9c 3e eb 2e ac be
       -0.013121104 0.08834071 0.30594355 -0.33629546
0003c0 22 9b a0 3d ca b6 69 3e d1 55 61 bc 1a 31 18 be
       0.07842089 0.22823635 -0.01375337 -0.14862481
0003d0 08 e3 ec bd 75 1a 98 be b1 e2 92 3d 65 ce a4 be
       -0.1156674 -0.29707685 0.07172144 -0.32188717
0003e0 bf 18 07 3d c4 51 32 3e a0 e9 9d 3e 57 81 21 bd
       0.032982584 0.17414004 0.30842304 -0.03942999
0003f0 61 b8 e2 3e 6c e9 0b 3e 9d a3 4b be 80 c1 1f 3d
       0.44281295 0.13663262 -0.19886632 0.039002895
