Assignment1/lstm2/complete_pytorch_lstm_model_state.pth (torch, 218122 bytes, 6 tensors)

lstm.weight_ih_l0 f4 [128, 384]
-0.20861705 0.13357553 -0.13671152 -0.057051573 0.19886401 -0.002434331 -0.037755523 -0.29617038
-0.5674868 0.052631624 -0.1311841 0.19194905 0.21362266 0.035265785 -0.01795131 0.07564043
0.303026 -0.62793547 0.24565797 0.080372155 -0.004369849 0.22375344 0.009392519 -0.22276345
0.10927357 0.036662057 0.19876531 0.07680625 0.10318801 -0.14808832 -0.23258784 -0.10036401
-0.049257293 0.1442306 0.19578795 -0.10477729 -0.03449084 -0.0889834 -0.17456526 0.02889887
-0.21365567 0.17627974 -0.069438376 0.32307595 -0.16856185 0.11244112 -0.24558754 0.16477701
-0.20281506 -0.30076316 -0.06513904 -0.0121642975 0.19773756 -0.06545278 -0.20413278 0.48340422
0.19576232 0.03634871 0.011637381 0.115368746 0.08628744 0.013161647 0.047492724 0.39057297
0.09807351 0.34089917 0.10101686 -0.48247284 -0.12109169 0.24569325 -0.06439402 -0.02233238
0.2536651 0.17933166 0.020761156 -0.22894746 -0.0028379788 0.13349767 0.4079092 0.42797124
0.2627189 0.2906931 -0.3453946 -0.17395219 -0.024131408 0.08407347 0.03850134 -0.19921295
0.085819304 -0.29619133 -0.17096454 -0.09783083 -0.24507661 -0.25300646 0.28821442 -0.093730666
0.07641785 0.1573286 -0.4567396 -0.12791412 -0.4178885 -0.25855014 -0.16751239 0.51888746
0.3617254 0.046938956 -0.1685619 0.13727103 0.09434395 -0.069864504 -0.020166794 0.059988264
0.36019993 0.13827421 -0.036602024 0.270244 -0.035239164 0.048951738 -0.18809 -0.0010977724
0.078088686 0.12375465 0.18125431 0.0979617 0.26630598 0.21957603 0.11787792 -0.045643285
-0.001110346 0.33241692 -0.12344359 -0.16107096 -0.21853636 -0.078362375 0.078564055 -0.23240946
-0.12209576 -0.23190902 0.16332991 0.119476505 -0.3568969 0.35668403 -0.012418338 0.3726505
-0.14235666 0.029507233 0.10479578 0.114530556 0.09343416 0.41938958 0.1264354 -0.5299566
-0.07806146 0.054399632 0.1556544 0.064102836 -0.1538933 0.1837834 0.20580319 -0.25276688
-0.006813831 -0.23535886 0.28521088 -0.118407644 -0.45736736 -0.17224118 0.03555139 0.2209681
-0.07648392 -0.21536066 0.09066249 -0.32826403 -0.11590065 0.30456352 -0.082454935 -0.27088302
-0.1314017 -0.28595325 0.021874998 -0.018729595 -0.22608659 0.06583301 -0.3307568 -0.2164102
-0.11616246 0.25947717 -0.074230134 -0.017285988 -0.31420898 -0.39847887 -0.15960771 -0.05726408
0.17737956 0.06580822 -0.02129365 -0.08997513 -0.39146 -0.13173197 0.13502803 0.064281955
0.024657412 0.1910337 -0.09856153 -0.088251695 0.1892261 -0.029772576 0.03819126 -0.17229342
-0.2942933 0.21875264 0.059977897 -0.08143606 0.2551974 0.22511683 0.26788333 -0.15094835
0.106611066 0.14671199 0.09727434 0.22178675 -0.14161554 -0.119608894 -0.0052607316 0.05667515
0.28682837 -0.048137873 0.33981493 -0.117089935 0.17578712 0.14111866 -0.15211965 0.106548056
0.11357357 -0.18768647 0.23342724 -0.12505975 -0.003537092 -0.23409593 0.15554908 0.4470432
-0.39282987 -0.15800355 -0.042163007 0.060133483 0.1847437 -0.017972544 -0.30157083 -0.18258159
0.16435793 0.04518558 0.00394708 0.21988238 0.23882294 -0.21351367 -0.20452558 0.22068663
00000000: b59f 55be 06c8 083e 1bfe 0bbe e9ae 69bd
00000010: 02a3 4b3e 4c89 1fbb 89a5 1abd a5a3 97be
00000020: d146 11bf 4294 573d 2055 06be 4b8e 443e
00000030: e6bf 5a3e db72 103d a00e 93bc 5fe9 9a3d
00000040: 3926 9b3e 61c0 20bf c38d 7b3e 289a a43d
00000050: f330 8fbb 9f1f 653e 14e3 193c 1a1c 64be
00000060: d2ca df3d f42a 163d 2289 4b3e 984c 9d3d
00000070: 3c54 d33d 77a4 17be 822b 6ebe a58b cdbd
00000080: 04c2 49bd 30b1 133e a37c 483e 7a95 d6bd
00000090: 4446 0dbd ee3c b6bd 3cc1 32be 53bd ec3c
000000a0: 8dc8 5abe ad82 343e b535 8ebd 366a a53e
000000b0: 7a9b 2cbe 8847 e63d 4d7b 7bbe 4ebb 283e
000000c0: c0ae 4fbe a1fd 99be 9e67 85bd c34c 47bc
000000d0: b77b 4a3e 1b0c 86bd 2f08 51be c280 f73e
000000e0: eb75 483e 63e2 143d b7aa 3e3c 7346 ec3d
000000f0: 78b7 b03d f3a3 573c bb87 423d 2ef9 c73e
00000100: c4da c83d 568a ae3e ede1 ce3d ae06 f7be
00000110: ecfe f7bd 0397 7b3e 03e1 83bd 65f2 b6bc
00000120: 64e0 813e b8a2 373e 4d13 aa3c 3471 6abe
00000130: 62fd 39bb 9db3 083e 7ad9 d03e 0c1f db3e
00000140: 1783 863e bad5 943e 90d7 b0be 8620 32be
00000150: 3baf c5bc b62e ac3d 95b3 1d3d 7bfe 4bbe
00000160: 08c2 af3d 64a6 97be 5411 2fbe 885b c8bd
00000170: 5df5 7abe 108a 81be d790 933e ddf5 bfbd
00000180: f680 9c3d c01a 213e c6d9 e9be ebfb 02be
00000190: 7bf5 d5be af60 84be 5e88 2bbe cfd5 043f
000001a0: 1234 b93e 1043 403d 7e9b 2cbe c790 0c3e
000001b0: 6737 c13d 1f15 8fbd d534 a5bc 41b6 753d
000001c0: 206c b83e c197 0d3e 01ec 15bd 6c5d 8a3e
000001d0: f156 10bd 9e81 483d aa9a 40be 21e3 8fba
000001e0: f6ec 9f3d 1473 fd3d bb9a 393e 25a0 c83d
000001f0: 4259 883e 8ad8 603e fb69 f13d 74f4 3abd
00000200: 0889 91ba 8d32 aa3e fecf fcbd c9ef 24be
00000210: ffc7 5fbe 747c a0bd 31e6 a03d bffc 6dbe
00000220: 580d fabd 8f79 6dbe f53f 273e 19b0 f43d
00000230: 31bb b6be 4a9f b63e 4976 4bbc 0ccc be3e
00000240: f2c5 11be 27b9 f13c 2b9f d63d ff8e ea3d
00000250: 695a bf3d 3bba d63e 4878 013e 3cab 07bf
00000260: b0de 9fbd 26d2 5e3d de63 1f3e 5948 833d
00000270: 3596 1dbe b731 3c3e 12be 523e a96a 81be
00000280: 8f46 dfbb ea01 71be 2907 923e b57f f2bd
00000290: 0e2c eabe fe5f 30be 569e 113d 7645 623e
000002a0: 9aa3 9cbd 8187 5cbe 41ad b93d 3912 a8be
000002b0: 525d edbd c0ef 9b3e 22de a8bd 2eb1 8abe
000002c0: 2b8e 06be 7768 92be 3233 b33c cf6e 99bc
000002d0: 3e83 67be 75d3 863d f558 a9be a39a 5dbe
000002e0: 95e6 edbd 31da 843e f805 98bd 589b 8dbc
000002f0: 00e0 a0be 6c05 ccbe 3470 23be bd8d 6abd
00000300: fda2 353e 76c6 863d 0570 aebc e244 b8bd
00000310: 726d c8be bfe4 06be ca44 0a3e 42a6 833d
00000320: 57fe c93c 579e 433e a1da c9bd 4ebd b4bd
00000330: 7dc4 413e 9ee5 f3bc 706e 1c3d b06d 30be
00000340: 9dad 96be b100 603e 62ab 753d f3c7 a6bd
00000350: 3ca9 823e 0785 663e 0128 893e 3492 1abe
00000360: e756 da3d ab3b 163e c537 c73d 111c 633e
00000370: aa03 11be 82f5 f4bd 3762 acbb 3424 683d
00000380: 2bdb 923e 382c 45bd 39fc ad3e d9cc efbd
00000390: 8a01 343e 6981 103e 41c5 1bbe de35 da3d
000003a0: 4399 e83d e230 40be 8d07 6f3e aa0f 00be
000003b0: 8ece 67bb d8b6 6fbe 4248 1f3e d9e2 e43e
000003c0: ff20 c9be afcb 21be 1eb3 2cbd 874e 763d
000003d0: 742d 3d3e 283b 93bc 7e67 9abe abf6 3abe
000003e0: 724d 283e 8414 393d 8256 813b d928 613e
000003f0: 008e 743e 54a3 5abe 276f 51be adfb 613e

lstm.weight_hh_l0 f4 [128, 32]
-0.1489941 0.3789201 0.4651071 -0.33045664 -0.5822549 0.13288307 0.2543644 0.46511525
0.2842856 -0.044510808 -0.30769432 -0.04835175 0.011453524 -0.013221094 -0.2371186 0.49932232
0.47522587 -0.2971046 0.4290735 -0.07537256 -0.4570651 -0.16949855 -0.18166417 0.018716661
0.09133756 -0.17835696 -0.26813626 -0.04194597 0.3088214 0.28175318 -0.23585254 -0.107729696
-0.3842697 -0.49975753 -0.14039508 -0.47145152 -0.67909104 0.38742235 0.28084514 0.88854575
0.061863553 -1.755081 -0.851541 -0.1297296 0.46549237 0.48919827 -0.2502139 0.35489535
1.0829756 0.5024556 0.14213397 -0.34633413 0.16379645 -1.0252761 -0.9153953 -0.104294695
0.4631914 0.81224424 0.16470598 -0.46922955 -0.4364944 1.4432745 0.024646157 -0.40428567
0.122880496 0.27127856 -1.2838702 0.25918123 0.06055768 0.3370663 -0.37439105 0.31318006
0.69431895 0.18829912 -0.2216661 0.29957405 0.07047454 0.61220723 -0.3003575 0.8160144
0.32182473 -0.30494303 -0.33225533 0.15400617 -0.075089835 -0.4266253 -0.23613751 0.6438281
-0.12980898 -0.22090054 0.036778413 0.13920942 -0.23225075 0.003142766 0.50353533 -0.5700688
-0.4512729 -0.45466423 -0.77302295 0.18600236 0.50374866 -0.099720374 -0.31549945 -0.7294501
0.4324048 -0.1895581 0.051507674 0.06206939 0.4823876 0.08142549 -0.58304024 -0.3699743
0.36577126 0.040777106 -0.6332484 0.40618867 -0.14657995 -0.1036941 -0.28402916 -0.60361016
0.38504586 -0.31516552 0.0011580602 -0.42398426 0.54063743 -0.08073225 0.060297567 -0.19564725
0.3685148 -0.79306513 0.36779287 -0.20565198 -0.016212028 1.0305648 0.33793995 0.33528566
0.31918153 -0.37129986 -0.42846107 0.008353031 -0.600271 0.16379216 0.31776097 -0.4268652
-0.77866215 -0.14823562 -0.9352064 0.26199484 -0.58533925 0.9414535 -0.8284112 0.3565513
0.35107118 0.7925409 0.5462643 -0.5523519 1.0359169 0.9543562 -0.41719383 0.48917544
-0.36481336 -0.014245484 0.14204666 -0.57757187 0.3214309 0.13851625 0.10690748 0.43720797
-0.13355711 0.10090625 -0.97663 -0.10993389 -0.61280316 -0.0962344 -0.26601145 0.30046928
-0.3530345 0.7409482 -0.5927489 -0.30032033 -0.32595596 0.20654312 -0.22209798 0.29099962
-0.6927637 -0.40611058 -0.58624846 -0.21796973 0.26797652 0.47226304 -0.031907637 0.0093803685
-0.3313622 0.3095476 -0.040814016 -0.8272461 -0.25561538 -0.08175141 -0.50319844 -0.5290859
0.9330199 1.1771108 0.58592707 0.78959405 0.78452116 0.81436306 -0.11555112 1.4703711
0.4879867 -1.7973269 0.38884786 0.70271695 0.90223473 -0.3807615 0.9418037 -0.24791548
0.5617885 0.06542337 -0.22664708 0.006662788 0.23098497 0.43343776 0.3120617 0.3152548
0.07060511 0.49311712 0.9792667 0.24991062 0.06158868 0.060847715 -1.047275 -0.6682554
0.6764139 -0.033968605 0.1138306 0.8394753 0.70501417 0.599077 0.0061802217 0.49679026
0.8090499 -0.33556554 0.74643207 0.37772262 0.75208676 0.43752044 0.88837814 1.0505371
0.21896605 -0.057911348 -0.42629004 0.48789543 -0.24220115 0.067228116 0.9470623 0.53226066
00000000: e991 18be d101 c23e 8522 ee3e 9d31 a9be
00000010: a80e 15bf 8012 083e 0d3c 823e 9623 ee3e
00000020: e28d 913e f750 36bd 1c8a 9dbe 7c0c 46bd
00000030: 90a7 3b3c 4a9d 58bc 38cf 72be 2da7 ff3e
00000040: ce50 f33e 181e 98be 86af db3e ee5c 9abd
00000050: 7004 eabe 0791 2dbe 2c06 3abe af53 993c
00000060: 300f bb3d 35a3 36be 2849 89be 8acf 2bbd
00000070: d71d 9e3e f441 903e 5483 71be 63a1 dcbd
00000080: 00bf c4be 38e0 ffbe bac3 0fbe 1862 f1be
00000090: e9d8 2dbf 395c c63e efca 8f3e bc77 633f
000000a0: a364 7d3d 7fa6 e0bf 97fe 59bf d6d7 04be
000000b0: 0455 ee3e 3278 fa3e 091c 80be d8b4 b53e
000000c0: f29e 8a3f eea0 003f 918b 113e b552 b1be
000000d0: 42ba 273e 3f3c 83bf 5957 6abf 7598 d5bd
000000e0: 6c27 ed3e 3def 4f3f afa8 283e db3e f0be
000000f0: 327c dfbe 38bd b83f bde6 c93c 88fe cebe
00000100: c5a8 fb3d 06e5 8a3e dc55 a4bf 67b3 843e
00000110: 540b 783d f493 ac3e 2fb0 bfbe 2359 a03e
00000120: e3be 313f 7cd1 403e 70fc 62be c561 993e
00000130: f554 903d 9db9 1c3f 75c8 99be 52e6 503f
00000140: 36c6 a43e 7e21 9cbe 5f1d aabe cbb3 1d3e
00000150: b3c8 99bd a26e dabe 08ce 71be ebd1 243f
00000160: a5ec 04be c033 62be f6a4 163d ea8c 0e3e
00000170: 24d3 6dbe ddf6 4d3b b1e7 003f 07f0 11bf
00000180: 3e0d e7be c0c9 e8be d5e4 45bf 6777 3e3e
00000190: acf5 003f 323a ccbd 2589 a1be 3ebd 3abf
000001a0: 2964 dd3e 851b 42be b6f9 523d 793c 7e3d
000001b0: 82fb f63e 68c2 a63d 2042 15bf 456d bdbe
000001c0: 5f46 bb3e e505 273d 911c 22bf f6f7 cf3e
000001d0: 0e19 16be 935d d4bd 456c 91be 3286 1abf
000001e0: bb24 c53e 605d a1be 0dca 973a 7714 d9be
000001f0: 3767 0a3f f356 a5bd 95fa 763d c157 48be
00000200: f9ad bc3e 5106 4bbf 594f bc3e 6f96 52be
00000210: 16cf 84bc 8ce9 833f 7706 ad3e 90aa ab3e
00000220: c36b a33e 041b bebe 405f dbbe 27db 083c
00000230: 5cab 19bf 22b9 273e 91b1 a23e 138e dabe
00000240: 6756 47bf 14cb 17be b069 6fbf 3024 863e
00000250: cbd8 15bf 1903 713f c212 54bf e48d b63e
00000260: 9abf b33e f6e3 4a3f fad7 0b3f ef66 0dbf
00000270: ed98 843f b050 743f 6e9a d5be 3475 fa3e
00000280: d1c8 babe e465 69bc ae74 113e c0db 13bf
00000290: 9792 a43e 34d7 0d3e 4ff2 da3d b9d9 df3e
000002a0: 32c3 08be f0a7 ce3d 6c04 7abf 0525 e1bd
000002b0: abe0 1cbf 8b16 c5bd a732 88be 1cd7 993e
000002c0: f0c0 b4be c8ae 3d3f 64be 17bf 96c3 99be
000002d0: b3e3 a6be 0a80 533e a76d 63be e7fd 943e
000002e0: f658 31bf baed cfbe 6114 16bf 7533 5fbe
000002f0: 3834 893e 76cc f13e 95b1 02bd 1eb0 193c
00000300: 4ea8 a9be 067d 9e3e 992c 27bd 67c6 53bf
00000310: 05e0 82be 496d a7bd 9dd1 00bf 2c72 07bf
00000320: 64da 6e3f 91ab 963f 51ff 153f d622 4a3f
00000330: 61d6 483f 197a 503f 11a6 ecbd 1f35 bc3f
00000340: 65d9 f93e cf0e e6bf 1117 c73e 42e5 333f
00000350: dbf8 663f 2cf3 c2be 0c1a 713f 8edd 7dbe
00000360: 5fd1 0f3f b0fc 853d 2c16 68be 8453 da3b
00000370: 5387 6c3e 8eeb dd3e 8dc6 9f3e 1469 a13e
00000380: 6999 903d d979 fc3e 39b1 7a3f 92e8 7f3e
00000390: 6944 7c3d 743b 793d 1b0d 86bf c912 2bbf
000003a0: 7629 2d3f aa22 0bbd 0520 e93d dae7 563f
000003b0: cf7b 343f 1c5d 193f 7583 ca3b 4b5b fe3e
000003c0: e51d 4f3f 3fcf abbe 2c16 3f3f dc64 c13e
000003d0: c288 403f ae02 e03e c06c 633f 0078 863f
000003e0: a338 603e 7334 6dbd b042 dabe 6ecd f93e
000003f0: 9403 78be e5ae 893d ad72 723f 3c42 083f

lstm.bias_ih_l0 f4 [128]
-0.08010287 -0.5125365 -0.32116896 0.38612244 -0.7728626 -0.47125065 -0.2785336 -0.24941061
-0.25091696 -0.16579092 0.32587335 -0.13642474 -0.3675875 -0.25956854 -0.53657705 -0.20462412
-0.34199888 -0.30073297 -0.77346444 -0.31010878 -0.8361179 -0.45088655 -0.42374173 -0.52388644
-0.7272992 -0.24828058 0.0811318 -0.6032747 -0.2908195 -0.7755459 -0.9946351 -0.39825758
-0.31887326 0.4571252 -1.2176723 -1.3392228 -0.22543599 -0.32031408 -0.1264158 -0.6898529
-0.8293427 -0.28382033 -1.073661 -0.30817726 -0.7145056 -0.56788594 -0.79922056 0.29928184
-1.076435 -0.78354245 -0.67222047 -0.908237 0.041957755 -0.81142414 -0.6257003 -0.59060305
1.3040624 -0.74836123 -0.37241462 -0.9088345 -0.31341425 -0.20838113 -1.0193313 -0.5651623
-0.44522 -0.6819753 -0.51563674 -0.36950684 -0.21553105 -0.34894073 0.039972533 -0.07847846
-0.5130042 -0.6564402 -1.670392 -0.53810704 1.041346 0.026550448 -0.80639935 0.17473237
-0.89286536 0.9060107 -0.03543127 0.89287835 -0.22524355 -1.4425931 0.6995826 -0.101312816
-0.34199554 -0.8651831 0.02330061 -0.57549775 -0.35386 0.092803344 -0.2581466 0.03224129
-0.096063 -0.14660294 -0.52394533 0.25694108 -0.34541535 -0.46424225 0.021248035 0.08901003
-0.0057387734 0.12551059 0.019553965 0.0009711816 -0.58658725 0.047825903 -0.44948336 -0.026008224
-0.23801373 -0.17836826 -0.3362 -0.15115243 -0.17325546 -0.68218356 -0.2986616 -0.28046617
-0.34995082 -0.18911408 0.2906993 0.4083828 0.048437223 -0.32562235 -0.6155371 -0.076461546
00000000: f90c a4bd 9835 03bf 4270 a4be d7b1 c53e
00000010: 53da 45bf c447 f1be f59b 8ebe 7f65 7fbe
00000020: 3078 80be 18c5 29be dfd8 a63e edb2 0bbe
00000030: 6e34 bcbe 2be6 84be 1d5d 09bf fc88 51be
00000040: 7a1a afbe acf9 99be c401 46bf 94c6 9ebe
00000050: d30b 56bf 9ada e6be adf4 d8be 6c1d 06bf
00000060: 4830 3abf 443d 7ebe 6e28 a63d 3670 1abf
00000070: 4be6 94be 2d8a 46bf 68a0 7ebf 6be8 cbbe
00000080: 5b43 a3be 500c ea3e b0dc 9bbf a76b abbf
00000090: b1d8 66be 3500 a4be 2573 01be 339a 30bf
000000a0: ce4f 54bf e650 91be b96d 89bf 69c9 9dbe
000000b0: d7e9 36bf f960 11bf b899 4cbf 783b 993e
000000c0: 9fc8 89bf 3d96 48bf a416 2cbf 3882 68bf
000000d0: e5db 2b3d 7eb9 4fbf e52d 20bf c331 17bf
000000e0: 84eb a63f 9a94 3fbf 21ad bebe 61a9 68bf
000000f0: d577 a0be dd61 55be 7379 82bf 7aae 10bf
00000100: e0f3 e3be ef95 2ebf c500 04bf 0030 bdbe
00000110: 2cb4 5cbe 5ca8 b2be 3dba 233d 51b9 a0bd
00000120: 3e54 03bf 770c 28bf 68cf d5bf 62c1 09bf
00000130: d34a 853f 5380 d93c 3070 4ebf 0bed 323e
00000140: d392 64bf 51f0 673f 6120 11bd ad93 643f
00000150: 3fa6 66be e4a6 b8bf d817 333f 187d cfbd
00000160: 0a1a afbe a47c 5dbf ece0 be3c d253 13bf
00000170: 232d b5be ae0f be3d cb2b 84be 710f 043d
00000180: aebc c4bd 151f 16be 4821 06bf c88d 833e
00000190: 48da b0be 29b1 edbe 5c10 ae3c e44a b63d
000001a0: 520c bcbb d985 003e a32f a03c e596 7e3a
000001b0: 952a 16bf 18e5 433d af22 e6be 330f d5bc
000001c0: dfb9 73be 2ba6 36be 6822 acbe b4c7 1abe
000001d0: e169 31be 95a3 2ebf 2cea 98be 4399 8fbe
000001e0: c12c b3be 1fa7 41be 8ad6 943e 8d17 d13e
000001f0: 1c66 463d f9b7 a6be d793 1dbf df97 9cbd

lstm.bias_hh_l0 f4 [128]
-0.08010287 -0.5125365 -0.32116896 0.38612244 -0.7728626 -0.47125065 -0.2785336 -0.24941061
-0.25091696 -0.16579092 0.32587335 -0.13642474 -0.3675875 -0.25956854 -0.53657705 -0.20462412
-0.34199888 -0.30073297 -0.77346444 -0.31010878 -0.8361179 -0.45088655 -0.42374173 -0.52388644
-0.7272992 -0.24828058 0.0811318 -0.6032747 -0.2908195 -0.7755459 -0.9946351 -0.39825758
-0.31887326 0.4571252 -1.2176723 -1.3392228 -0.22543599 -0.32031408 -0.1264158 -0.6898529
-0.8293427 -0.28382033 -1.073661 -0.30817726 -0.7145056 -0.56788594 -0.79922056 0.29928184
-1.076435 -0.78354245 -0.67222047 -0.908237 0.041957755 -0.81142414 -0.6257003 -0.59060305
1.3040624 -0.74836123 -0.37241462 -0.9088345 -0.31341425 -0.20838113 -1.0193313 -0.5651623
-0.44522 -0.6819753 -0.51563674 -0.36950684 -0.21553105 -0.34894073 0.039972533 -0.07847846
-0.5130042 -0.6564402 -1.670392 -0.53810704 1.041346 0.026550448 -0.80639935 0.17473237
-0.89286536 0.9060107 -0.03543127 0.89287835 -0.22524355 -1.4425931 0.6995826 -0.101312816
-0.34199554 -0.8651831 0.02330061 -0.57549775 -0.35386 0.092803344 -0.2581466 0.03224129
-0.096063 -0.14660294 -0.52394533 0.25694108 -0.34541535 -0.46424225 0.021248035 0.08901003
-0.0057387734 0.12551059 0.019553965 0.0009711816 -0.58658725 0.047825903 -0.44948336 -0.026008224
-0.23801373 -0.17836826 -0.3362 -0.15115243 -0.17325546 -0.68218356 -0.2986616 -0.28046617
-0.34995082 -0.18911408 0.2906993 0.4083828 0.048437223 -0.32562235 -0.6155371 -0.076461546
00000000: f90c a4bd 9835 03bf 4270 a4be d7b1 c53e
00000010: 53da 45bf c447 f1be f59b 8ebe 7f65 7fbe
00000020: 3078 80be 18c5 29be dfd8 a63e edb2 0bbe
00000030: 6e34 bcbe 2be6 84be 1d5d 09bf fc88 51be
00000040: 7a1a afbe acf9 99be c401 46bf 94c6 9ebe
00000050: d30b 56bf 9ada e6be adf4 d8be 6c1d 06bf
00000060: 4830 3abf 443d 7ebe 6e28 a63d 3670 1abf
00000070: 4be6 94be 2d8a 46bf 68a0 7ebf 6be8 cbbe
00000080: 5b43 a3be 500c ea3e b0dc 9bbf a76b abbf
00000090: b1d8 66be 3500 a4be 2573 01be 339a 30bf
000000a0: ce4f 54bf e650 91be b96d 89bf 69c9 9dbe
000000b0: d7e9 36bf f960 11bf b899 4cbf 783b 993e
000000c0: 9fc8 89bf 3d96 48bf a416 2cbf 3882 68bf
000000d0: e5db 2b3d 7eb9 4fbf e52d 20bf c331 17bf
000000e0: 84eb a63f 9a94 3fbf 21ad bebe 61a9 68bf
000000f0: d577 a0be dd61 55be 7379 82bf 7aae 10bf
00000100: e0f3 e3be ef95 2ebf c500 04bf 0030 bdbe
00000110: 2cb4 5cbe 5ca8 b2be 3dba 233d 51b9 a0bd
00000120: 3e54 03bf 770c 28bf 68cf d5bf 62c1 09bf
00000130: d34a 853f 5380 d93c 3070 4ebf 0bed 323e
00000140: d392 64bf 51f0 673f 6120 11bd ad93 643f
00000150: 3fa6 66be e4a6 b8bf d817 333f 187d cfbd
00000160: 0a1a afbe a47c 5dbf ece0 be3c d253 13bf
00000170: 232d b5be ae0f be3d cb2b 84be 710f 043d
00000180: aebc c4bd 151f 16be 4821 06bf c88d 833e
00000190: 48da b0be 29b1 edbe 5c10 ae3c e44a b63d
000001a0: 520c bcbb d985 003e a32f a03c e596 7e3a
000001b0: 952a 16bf 18e5 433d af22 e6be 330f d5bc
000001c0: dfb9 73be 2ba6 36be 6822 acbe b4c7 1abe
000001d0: e169 31be 95a3 2ebf 2cea 98be 4399 8fbe
000001e0: c12c b3be 1fa7 41be 8ad6 943e 8d17 d13e
000001f0: 1c66 463d f9b7 a6be d793 1dbf df97 9cbd

fc.weight f4 [13, 32]
0.82137746 0.24629168 -0.5812569 8.579549 0.26131994 -3.085434 -0.2968816 -3.2828922
2.7072682 -5.053611 4.537988 1.0169334 0.890914 -3.7345717 1.9419417 1.728726
4.049816 -4.8172913 -3.5759773 2.6322157 -0.6193538 -6.520788 2.4526849 -4.385531
0.39927477 -1.370194 2.8518946 -1.4918892 5.155197 2.2562969 -4.7204933 -1.7954257
-1.2044882 -1.747271 -6.412272 -3.215913 1.3993667 1.4157145 -1.9244713 1.1694027
0.9562211 0.0053757387 -5.925432 -4.5004888 -1.2057229 -1.0783896 2.3944488 0.577568
-3.9279294 4.6167994 -3.2963266 -5.389194 -0.753168 1.9085618 2.6968746 -6.642063
-0.8278923 -4.403055 2.598741 0.24766259 -4.876546 0.3509937 -4.172485 0.64254194
-2.0257678 0.95193183 4.109155 -5.329171 1.6958802 -1.7501569 -3.5766966 2.3163211
0.6681304 1.4082383 4.6779675 3.3218753 -3.8968909 -2.297605 0.1893489 1.6546333
4.6611986 1.204662 2.490183 0.023153165 -1.5896473 5.4479485 -2.2565265 -0.67620766
0.49623734 -2.7863936 -1.3416947 2.7911057 4.1720486 -1.6100513 -1.8645658 1.4271886
-1.3195128 0.5210315 -8.215125 -5.3670664 -1.9419731 1.1175625 -2.3274143 -2.3843956
4.880811 4.2729216 4.8218822 2.9057472 -0.22263657 1.1157426 4.925144 -0.79353297
-0.9904256 2.7231965 -0.07458807 -0.11306958 -0.56264997 0.8114081 -1.6957629 -1.1038395
0.15594716 0.9530536 -2.1959503 0.67016214 -2.2677712 -2.8323102 -3.3092577 4.5002747
-0.96224135 0.7550141 5.1626406 7.097086 2.4988081 -0.99589276 -1.1135447 -2.132154
-4.29175 1.6298771 3.3854399 0.37730148 5.645844 0.604222 4.0002856 -0.29581505
5.62324 3.1233616 1.459471 0.71098286 -0.04536421 2.00311 0.7549895 -0.6551447
0.91738296 1.9686428 1.8122543 3.133504 -4.3178067 1.3014952 1.7930965 3.088784
2.0000281 -0.16909426 3.0815663 4.2688246 -1.6948929 3.799381 2.8176472 -0.15501909
-3.9660096 0.21862352 4.276996 -0.8313803 -5.0587935 0.68862736 -0.7167754 1.4379098
-4.8074007 3.1301663 0.8595259 -4.471358 -1.1668578 2.164415 -3.543622 -0.62592834
0.003470272 7.786267 -2.8963182 4.9972415 1.093951 3.38889 3.3514466 -3.9434955
-0.6241168 -2.962573 1.2162825 -3.9843287 2.9984028 1.0960019 5.7055287 -2.5140424
-1.1393371 1.1509748 -6.2809396 -1.6451386 6.7911572 1.7113187 -7.80707 -0.59282935
-2.2953625 -1.4733211 -4.184478 2.189119 -3.314386 -4.317856 -1.641395 0.5908185
-1.8102027 -3.6180367 0.61609757 -0.48386297 -1.0144873 -2.6953356 6.194785 -2.3983326
0.7121864 0.3430121 -0.85451174 6.8446226 1.122343 -2.7614682 -1.3409957 3.6751668
-3.8254247 -1.9313718 -4.9166512 -1.9618467 -2.7733798 0.766851 -0.5886417 -2.0552826
0.70083785 2.595779 -1.2954142 2.8911793 -1.1063981 -1.451149 -5.431844 4.3349032
-0.08525699 -2.4415832 0.13004197 -5.079999 -3.094883 -5.0754695 -4.52169 0.95144355
00000000: cb45 523f e333 7c3e 41cd 14bf d545 0941
00000010: bacb 853e c077 45c0 dd00 98be e81a 52c0
00000020: e243 2d40 2eb7 a1c0 3337 9140 e02a 823f
00000030: f112 643f 3903 6fc0 8c91 f83f e546 dd3f
00000040: 1898 8140 4027 9ac0 d0dc 64c0 3976 2840
00000050: f88d 1ebf 4caa d0c0 caf8 1c40 4556 8cc0
00000060: be6d cc3e 8462 afbf 7185 3640 3af6 bebf
00000070: 60f7 a440 2b67 1040 480e 97c0 82d0 e5bf
00000080: ab2c 9abf 93a6 dfbf 5531 cdc0 85d1 4dc0
00000090: 731e b33f 2236 b53f 1355 f6bf fdae 953f
000000a0: e8ca 743f f726 b03b 249d bdc0 0104 90c0
000000b0: 2155 9abf ac08 8abf a63e 1940 7fdb 133f
000000c0: 3263 7bc0 d2bc 9340 04f7 52c0 4774 acc0
000000d0: 9ecf 40bf c14b f43f 9899 2c40 c88b d4c0
000000e0: c0f0 53bf d4e5 8cc0 c651 2640 439b 7d3e
000000f0: aa0c 9cc0 72b5 b33e ff84 85c0 a17d 243f
00000100: 2ea6 01c0 ceb1 733f 337e 8340 9288 aac0
00000110: 9a12 d93f 2405 e0bf 99e8 64c0 9b3e 1440
00000120: 980a 2b3f 2741 b43f e9b1 9540 9b99 5440
00000130: a966 79c0 f60b 13c0 aee4 413e 06cb d33f
00000140: 8a28 9540 5d32 9a3f 295f 1f40 b5ab bd3c
00000150: 9079 cbbf 9855 ae40 ee6a 10c0 f21b 2dbf
00000160: d212 fe3e 4654 32c0 a7bc abbf 7aa1 3240
00000170: 6c81 8540 2916 cebf 18aa eebf 1eae b63f
00000180: cce5 a8bf 5262 053f 2771 03c1 02bf abc0
00000190: 9392 f8bf 4a0c 8f3f 5bf4 14c0 f099 18c0
000001a0: 9b2f 9c40 c6bb 8840 dc4c 9a40 c3f7 3940
000001b0: d7fa 63be a7d0 8e3f c89a 9d40 fa24 4bbf
000001c0: 888c 7dbf da48 2e40 a1c1 98bd 0691 e7bd
000001d0: d409 10bf 71b8 4f3f c20e d9bf 9d4a 8dbf
000001e0: 9db0 1f3e 52fb 733f 738a 0cc0 bf8f 2b3f
000001f0: 2a23 11c0 9244 35c0 e1ca 53c0 4002 9040
00000200: 7355 76bf 9b48 413f 5a34 a540 541b e340
00000210: 79ec 1f40 d4f2 7ebf a288 8ebf 3675 08c0
00000220: 0456 89c0 d09f d03f 0cab 5840 a92d c13e
00000230: c1aa b440 4bae 1a3f 5702 8040 1275 97be
00000240: 95f1 b340 28e5 4740 f2cf ba3f f902 363f
00000250: d2cf 39bd f432 0040 fe46 413f 90b7 27bf
00000260: 9cd9 6a3f 7dfc fb3f f3f7 e73f 548b 4840
00000270: 792b 8ac0 6597 a63f 3084 e53f a3ae 4540
00000280: 7600 0040 0c27 2dbe 6238 4540 369a 8840
00000290: 40f2 d8bf 0f29 7340 5554 3440 53bd 1ebe
000002a0: 1ad3 7dc0 d8de 5f3e 27dd 8840 57d5 54bf
000002b0: a3e1 a1c0 e249 303f 987e 37bf 6e0d b83f
000002c0: 3ad6 99c0 a554 4840 e409 5c3f 5d15 8fc0
000002d0: 995b 95bf c685 0a40 b4ca 62c0 d73c 20bf
000002e0: 816d 633b 1929 f940 475d 39c0 67e9 9f40
000002f0: 9606 8c3f 93e3 5840 1a7e 5640 3b62 7cc0
00000300: 1ec6 1fbf cc9a 3dc0 25af 9b3f 3eff 7ec0
00000310: d5e5 3f40 ca49 8c3f b193 b640 12e6 20c0
00000320: ccd5 91bf 2453 933f 75fd c8c0 e793 d2bf
00000330: 2951 d940 7e0c db3f 84d3 f9c0 aac3 17bf
00000340: 38e7 12c0 c995 bcbf 3ee7 85c0 871a 0c40
00000350: e61e 54c0 e02b 8ac0 3b19 d2bf e23f 173f
00000360: b9b4 e7bf ea8d 67c0 92b8 1d3f e3bc f7be
00000370: b8da 81bf 6180 2cc0 ae3b c640 487e 19c0
00000380: d951 363f 489f af3e 48c1 5abf 2607 db40
00000390: efa8 8f3f e5bb 30c0 bfa5 abbf ef35 6b40
000003a0: c2d3 74c0 3137 f7bf 3555 9dc0 cb1d fbbf
000003b0: 0e7f 31c0 5950 443f 39b1 16bf c089 03c0
000003c0: 1c6a 333f 3e21 2640 22d0 a5bf 1509 3940
000003d0: 749e 8dbf 40bf b9bf abd1 adc0 87b7 8a40
000003e0: 379b aebd e642 1cc0 b929 053e 5a8f a2c0
000003f0: 9012 46c0 3f6a a2c0 afb1 90c0 ce91 733f

fc.bias f4 [13]
-0.8878899 1.6986837 1.2967045 2.230037 -1.4605067 -0.71622974 3.4462762 -2.478735
-0.7082952 -0.023398004 1.137434 -0.17027447 -3.6860492
00000000: c14c 63bf 786e d93f 6afa a53f edb8 0e40
00000010: e2f1 babf d55a 37bf ca8f 5c40 98a3 1ec0
00000020: d652 35bf 2cad bfbc 7097 913f 6e5c 2ebe
00000030: 3be8 6bc0
